{
  "nodes": [
    {
      "op": "null", 
      "name": "data", 
      "attr": {"__predict__": "False"}, 
      "inputs": []
    }, 
    {
      "op": "null", 
      "name": "quantiinput0_input_shift_history", 
      "attr": {
        "__predict__": "False", 
        "fixed_output_shift": "7"
      }, 
      "inputs": []
    }, 
    {
      "op": "QuantiInput", 
      "name": "quantiinput0", 
      "attr": {
        "__predict__": "False", 
        "fixed_output_shift": "7"
      }, 
      "inputs": [[0, 0, 0], [1, 0, 1]]
    }, 
    {
      "op": "null", 
      "name": "vargnet_head_conv1_weight", 
      "attr": {"__predict__": "False"}, 
      "inputs": []
    }, 
    {
      "op": "null", 
      "name": "vargnet_head_conv1_wshift_shift", 
      "attr": {
        "__logging__": "True", 
        "__predict__": "False", 
        "bias_bits": "8", 
        "bits": "8", 
        "init_shift": "7", 
        "quantization_type": "weight", 
        "use_aux_shift": "True", 
        "vector_quanti": "True"
      }, 
      "inputs": []
    }, 
    {
      "op": "QuantizationSte", 
      "name": "vargnet_head_conv1_wshift", 
      "attr": {
        "__logging__": "True", 
        "__predict__": "False", 
        "bias_bits": "8", 
        "bits": "8", 
        "init_shift": "7", 
        "quantization_type": "weight", 
        "use_aux_shift": "True", 
        "vector_quanti": "True"
      }, 
      "inputs": [[3, 0, 0], [4, 0, 1]]
    }, 
    {
      "op": "null", 
      "name": "vargnet_head_conv1_bias", 
      "attr": {"__predict__": "False"}, 
      "inputs": []
    }, 
    {
      "op": "null", 
      "name": "vargnet_head_conv1_bshift_shift", 
      "attr": {
        "__logging__": "True", 
        "__predict__": "False", 
        "bias_bits": "8", 
        "bits": "8", 
        "init_shift": "7", 
        "quantization_type": "bias", 
        "use_aux_shift": "True", 
        "vector_quanti": "True"
      }, 
      "inputs": []
    }, 
    {
      "op": "QuantizationSte", 
      "name": "vargnet_head_conv1_bshift", 
      "attr": {
        "__logging__": "True", 
        "__predict__": "False", 
        "bias_bits": "8", 
        "bits": "8", 
        "init_shift": "7", 
        "quantization_type": "bias", 
        "use_aux_shift": "True", 
        "vector_quanti": "True"
      }, 
      "inputs": [[6, 0, 0], [7, 0, 1]]
    }, 
    {
      "op": "Convolution", 
      "name": "vargnet_head_conv1", 
      "attr": {
        "__predict__": "False", 
        "kernel": "(3, 3)", 
        "num_filter": "64", 
        "num_group": "1", 
        "pad": "(1, 1)", 
        "stride": "(1, 1)", 
        "workspace": "512"
      }, 
      "inputs": [[2, 0, 0], [5, 0, 0], [8, 0, 0]]
    }, 
    {
      "op": "QuantiActivation", 
      "name": "quantiactivation0", 
      "attr": {
        "__force_mirroring__": "True", 
        "__predict__": "False", 
        "act_type": "relu"
      }, 
      "inputs": [[9, 0, 0]]
    }, 
    {
      "op": "null", 
      "name": "vargnet_head_conv1_quantidata_shift", 
      "attr": {
        "__force_mirroring__": "True", 
        "__logging__": "True", 
        "__predict__": "False", 
        "bias_bits": "8", 
        "bits": "8", 
        "init_shift": "4", 
        "quantization_type": "data"
      }, 
      "inputs": []
    }, 
    {
      "op": "QuantizationSte", 
      "name": "vargnet_head_conv1_quantidata", 
      "attr": {
        "__force_mirroring__": "True", 
        "__logging__": "True", 
        "__predict__": "False", 
        "bias_bits": "8", 
        "bits": "8", 
        "init_shift": "4", 
        "quantization_type": "data"
      }, 
      "inputs": [[10, 0, 0], [11, 0, 1]]
    }, 
    {
      "op": "null", 
      "name": "vargnet_head_headstage_sep1_data_conv2d_depthwise_weight", 
      "attr": {"__predict__": "False"}, 
      "inputs": []
    }, 
    {
      "op": "null", 
      "name": "vargnet_head_headstage_sep1_data_conv2d_depthwise_wshift_shift", 
      "attr": {
        "__logging__": "True", 
        "__predict__": "False", 
        "bias_bits": "8", 
        "bits": "8", 
        "init_shift": "7", 
        "quantization_type": "weight", 
        "use_aux_shift": "True", 
        "vector_quanti": "True"
      }, 
      "inputs": []
    }, 
    {
      "op": "QuantizationSte", 
      "name": "vargnet_head_headstage_sep1_data_conv2d_depthwise_wshift", 
      "attr": {
        "__logging__": "True", 
        "__predict__": "False", 
        "bias_bits": "8", 
        "bits": "8", 
        "init_shift": "7", 
        "quantization_type": "weight", 
        "use_aux_shift": "True", 
        "vector_quanti": "True"
      }, 
      "inputs": [[13, 0, 0], [14, 0, 1]]
    }, 
    {
      "op": "null", 
      "name": "vargnet_head_headstage_sep1_data_conv2d_depthwise_bias", 
      "attr": {"__predict__": "False"}, 
      "inputs": []
    }, 
    {
      "op": "null", 
      "name": "vargnet_head_headstage_sep1_data_conv2d_depthwise_bshift_shift", 
      "attr": {
        "__logging__": "True", 
        "__predict__": "False", 
        "bias_bits": "8", 
        "bits": "8", 
        "init_shift": "7", 
        "quantization_type": "bias", 
        "use_aux_shift": "True", 
        "vector_quanti": "True"
      }, 
      "inputs": []
    }, 
    {
      "op": "QuantizationSte", 
      "name": "vargnet_head_headstage_sep1_data_conv2d_depthwise_bshift", 
      "attr": {
        "__logging__": "True", 
        "__predict__": "False", 
        "bias_bits": "8", 
        "bits": "8", 
        "init_shift": "7", 
        "quantization_type": "bias", 
        "use_aux_shift": "True", 
        "vector_quanti": "True"
      }, 
      "inputs": [[16, 0, 0], [17, 0, 1]]
    }, 
    {
      "op": "Convolution", 
      "name": "vargnet_head_headstage_sep1_data_conv2d_depthwise", 
      "attr": {
        "__predict__": "False", 
        "__wd_mult__": "1", 
        "dilate": "(1, 1)", 
        "kernel": "(3, 3)", 
        "no_bias": "False", 
        "num_filter": "64", 
        "num_group": "8", 
        "pad": "(1, 1)", 
        "stride": "(2, 2)", 
        "workspace": "512"
      }, 
      "inputs": [[12, 0, 0], [15, 0, 0], [18, 0, 0]]
    }, 
    {
      "op": "QuantiActivation", 
      "name": "quantiactivation1", 
      "attr": {
        "__force_mirroring__": "True", 
        "__predict__": "False", 
        "act_type": "relu"
      }, 
      "inputs": [[19, 0, 0]]
    }, 
    {
      "op": "null", 
      "name": "vargnet_head_headstage_sep1_data_conv2d_depthwise_quantidata_shift", 
      "attr": {
        "__force_mirroring__": "True", 
        "__logging__": "True", 
        "__predict__": "False", 
        "bias_bits": "8", 
        "bits": "8", 
        "init_shift": "4", 
        "quantization_type": "data"
      }, 
      "inputs": []
    }, 
    {
      "op": "QuantizationSte", 
      "name": "vargnet_head_headstage_sep1_data_conv2d_depthwise_quantidata", 
      "attr": {
        "__force_mirroring__": "True", 
        "__logging__": "True", 
        "__predict__": "False", 
        "bias_bits": "8", 
        "bits": "8", 
        "init_shift": "4", 
        "quantization_type": "data"
      }, 
      "inputs": [[20, 0, 0], [21, 0, 1]]
    }, 
    {
      "op": "null", 
      "name": "vargnet_head_headstage_sep1_data_conv2d_pointwise_weight", 
      "attr": {"__predict__": "False"}, 
      "inputs": []
    }, 
    {
      "op": "null", 
      "name": "vargnet_head_headstage_sep1_data_conv2d_pointwise_wshift_shift", 
      "attr": {
        "__logging__": "True", 
        "__predict__": "False", 
        "bias_bits": "8", 
        "bits": "8", 
        "init_shift": "7", 
        "quantization_type": "weight", 
        "use_aux_shift": "True", 
        "vector_quanti": "True"
      }, 
      "inputs": []
    }, 
    {
      "op": "QuantizationSte", 
      "name": "vargnet_head_headstage_sep1_data_conv2d_pointwise_wshift", 
      "attr": {
        "__logging__": "True", 
        "__predict__": "False", 
        "bias_bits": "8", 
        "bits": "8", 
        "init_shift": "7", 
        "quantization_type": "weight", 
        "use_aux_shift": "True", 
        "vector_quanti": "True"
      }, 
      "inputs": [[23, 0, 0], [24, 0, 1]]
    }, 
    {
      "op": "null", 
      "name": "vargnet_head_headstage_sep1_data_conv2d_pointwise_bias", 
      "attr": {"__predict__": "False"}, 
      "inputs": []
    }, 
    {
      "op": "null", 
      "name": "vargnet_head_headstage_sep1_data_conv2d_pointwise_bshift_shift", 
      "attr": {
        "__logging__": "True", 
        "__predict__": "False", 
        "bias_bits": "8", 
        "bits": "8", 
        "init_shift": "7", 
        "quantization_type": "bias", 
        "use_aux_shift": "True", 
        "vector_quanti": "True"
      }, 
      "inputs": []
    }, 
    {
      "op": "QuantizationSte", 
      "name": "vargnet_head_headstage_sep1_data_conv2d_pointwise_bshift", 
      "attr": {
        "__logging__": "True", 
        "__predict__": "False", 
        "bias_bits": "8", 
        "bits": "8", 
        "init_shift": "7", 
        "quantization_type": "bias", 
        "use_aux_shift": "True", 
        "vector_quanti": "True"
      }, 
      "inputs": [[26, 0, 0], [27, 0, 1]]
    }, 
    {
      "op": "Convolution", 
      "name": "vargnet_head_headstage_sep1_data_conv2d_pointwise", 
      "attr": {
        "__predict__": "False", 
        "kernel": "(1, 1)", 
        "no_bias": "False", 
        "num_filter": "64", 
        "num_group": "1", 
        "pad": "(0, 0)", 
        "stride": "(1, 1)", 
        "workspace": "512"
      }, 
      "inputs": [[22, 0, 0], [25, 0, 0], [28, 0, 0]]
    }, 
    {
      "op": "QuantiActivation", 
      "name": "quantiactivation2", 
      "attr": {
        "__force_mirroring__": "True", 
        "__predict__": "False", 
        "act_type": "relu"
      }, 
      "inputs": [[29, 0, 0]]
    }, 
    {
      "op": "null", 
      "name": "vargnet_head_headstage_sep1_data_conv2d_pointwise_quantidata_shift", 
      "attr": {
        "__force_mirroring__": "True", 
        "__logging__": "True", 
        "__predict__": "False", 
        "bias_bits": "8", 
        "bits": "8", 
        "init_shift": "4", 
        "quantization_type": "data"
      }, 
      "inputs": []
    }, 
    {
      "op": "QuantizationSte", 
      "name": "vargnet_head_headstage_sep1_data_conv2d_pointwise_quantidata", 
      "attr": {
        "__force_mirroring__": "True", 
        "__logging__": "True", 
        "__predict__": "False", 
        "bias_bits": "8", 
        "bits": "8", 
        "init_shift": "4", 
        "quantization_type": "data"
      }, 
      "inputs": [[30, 0, 0], [31, 0, 1]]
    }, 
    {
      "op": "null", 
      "name": "vargnet_head_headstage_sep2_data_conv2d_depthwise_weight", 
      "attr": {"__predict__": "False"}, 
      "inputs": []
    }, 
    {
      "op": "null", 
      "name": "vargnet_head_headstage_sep2_data_conv2d_depthwise_wshift_shift", 
      "attr": {
        "__logging__": "True", 
        "__predict__": "False", 
        "bias_bits": "8", 
        "bits": "8", 
        "init_shift": "7", 
        "quantization_type": "weight", 
        "use_aux_shift": "True", 
        "vector_quanti": "True"
      }, 
      "inputs": []
    }, 
    {
      "op": "QuantizationSte", 
      "name": "vargnet_head_headstage_sep2_data_conv2d_depthwise_wshift", 
      "attr": {
        "__logging__": "True", 
        "__predict__": "False", 
        "bias_bits": "8", 
        "bits": "8", 
        "init_shift": "7", 
        "quantization_type": "weight", 
        "use_aux_shift": "True", 
        "vector_quanti": "True"
      }, 
      "inputs": [[33, 0, 0], [34, 0, 1]]
    }, 
    {
      "op": "null", 
      "name": "vargnet_head_headstage_sep2_data_conv2d_depthwise_bias", 
      "attr": {"__predict__": "False"}, 
      "inputs": []
    }, 
    {
      "op": "null", 
      "name": "vargnet_head_headstage_sep2_data_conv2d_depthwise_bshift_shift", 
      "attr": {
        "__logging__": "True", 
        "__predict__": "False", 
        "bias_bits": "8", 
        "bits": "8", 
        "init_shift": "7", 
        "quantization_type": "bias", 
        "use_aux_shift": "True", 
        "vector_quanti": "True"
      }, 
      "inputs": []
    }, 
    {
      "op": "QuantizationSte", 
      "name": "vargnet_head_headstage_sep2_data_conv2d_depthwise_bshift", 
      "attr": {
        "__logging__": "True", 
        "__predict__": "False", 
        "bias_bits": "8", 
        "bits": "8", 
        "init_shift": "7", 
        "quantization_type": "bias", 
        "use_aux_shift": "True", 
        "vector_quanti": "True"
      }, 
      "inputs": [[36, 0, 0], [37, 0, 1]]
    }, 
    {
      "op": "Convolution", 
      "name": "vargnet_head_headstage_sep2_data_conv2d_depthwise", 
      "attr": {
        "__predict__": "False", 
        "__wd_mult__": "1", 
        "dilate": "(1, 1)", 
        "kernel": "(3, 3)", 
        "no_bias": "False", 
        "num_filter": "64", 
        "num_group": "8", 
        "pad": "(1, 1)", 
        "stride": "(1, 1)", 
        "workspace": "512"
      }, 
      "inputs": [[32, 0, 0], [35, 0, 0], [38, 0, 0]]
    }, 
    {
      "op": "null", 
      "name": "vargnet_head_headstage_sep2_data_conv2d_depthwise_quantidata_shift", 
      "attr": {
        "__force_mirroring__": "True", 
        "__logging__": "True", 
        "__predict__": "False", 
        "bias_bits": "8", 
        "bits": "8", 
        "init_shift": "4", 
        "quantization_type": "data"
      }, 
      "inputs": []
    }, 
    {
      "op": "QuantizationSte", 
      "name": "vargnet_head_headstage_sep2_data_conv2d_depthwise_quantidata", 
      "attr": {
        "__force_mirroring__": "True", 
        "__logging__": "True", 
        "__predict__": "False", 
        "bias_bits": "8", 
        "bits": "8", 
        "init_shift": "4", 
        "quantization_type": "data"
      }, 
      "inputs": [[39, 0, 0], [40, 0, 1]]
    }, 
    {
      "op": "null", 
      "name": "vargnet_head_headstage_sep2_data_conv2d_pointwise_weight", 
      "attr": {"__predict__": "False"}, 
      "inputs": []
    }, 
    {
      "op": "null", 
      "name": "vargnet_head_headstage_sep2_data_conv2d_pointwise_wshift_shift", 
      "attr": {
        "__logging__": "True", 
        "__predict__": "False", 
        "bias_bits": "8", 
        "bits": "8", 
        "init_shift": "7", 
        "quantization_type": "weight", 
        "use_aux_shift": "True", 
        "vector_quanti": "True"
      }, 
      "inputs": []
    }, 
    {
      "op": "QuantizationSte", 
      "name": "vargnet_head_headstage_sep2_data_conv2d_pointwise_wshift", 
      "attr": {
        "__logging__": "True", 
        "__predict__": "False", 
        "bias_bits": "8", 
        "bits": "8", 
        "init_shift": "7", 
        "quantization_type": "weight", 
        "use_aux_shift": "True", 
        "vector_quanti": "True"
      }, 
      "inputs": [[42, 0, 0], [43, 0, 1]]
    }, 
    {
      "op": "null", 
      "name": "vargnet_head_headstage_sep2_data_conv2d_pointwise_bias", 
      "attr": {"__predict__": "False"}, 
      "inputs": []
    }, 
    {
      "op": "null", 
      "name": "vargnet_head_headstage_sep2_data_conv2d_pointwise_bshift_shift", 
      "attr": {
        "__logging__": "True", 
        "__predict__": "False", 
        "bias_bits": "8", 
        "bits": "8", 
        "init_shift": "7", 
        "quantization_type": "bias", 
        "use_aux_shift": "True", 
        "vector_quanti": "True"
      }, 
      "inputs": []
    }, 
    {
      "op": "QuantizationSte", 
      "name": "vargnet_head_headstage_sep2_data_conv2d_pointwise_bshift", 
      "attr": {
        "__logging__": "True", 
        "__predict__": "False", 
        "bias_bits": "8", 
        "bits": "8", 
        "init_shift": "7", 
        "quantization_type": "bias", 
        "use_aux_shift": "True", 
        "vector_quanti": "True"
      }, 
      "inputs": [[45, 0, 0], [46, 0, 1]]
    }, 
    {
      "op": "Convolution", 
      "name": "vargnet_head_headstage_sep2_data_conv2d_pointwise", 
      "attr": {
        "__predict__": "False", 
        "kernel": "(1, 1)", 
        "no_bias": "False", 
        "num_filter": "64", 
        "num_group": "1", 
        "pad": "(0, 0)", 
        "stride": "(1, 1)", 
        "workspace": "512"
      }, 
      "inputs": [[41, 0, 0], [44, 0, 0], [47, 0, 0]]
    }, 
    {
      "op": "null", 
      "name": "vargnet_head_headstage_shortcut_conv2d_depthwise_weight", 
      "attr": {"__predict__": "False"}, 
      "inputs": []
    }, 
    {
      "op": "null", 
      "name": "vargnet_head_headstage_shortcut_conv2d_depthwise_wshift_shift", 
      "attr": {
        "__logging__": "True", 
        "__predict__": "False", 
        "bias_bits": "8", 
        "bits": "8", 
        "init_shift": "7", 
        "quantization_type": "weight", 
        "use_aux_shift": "True", 
        "vector_quanti": "True"
      }, 
      "inputs": []
    }, 
    {
      "op": "QuantizationSte", 
      "name": "vargnet_head_headstage_shortcut_conv2d_depthwise_wshift", 
      "attr": {
        "__logging__": "True", 
        "__predict__": "False", 
        "bias_bits": "8", 
        "bits": "8", 
        "init_shift": "7", 
        "quantization_type": "weight", 
        "use_aux_shift": "True", 
        "vector_quanti": "True"
      }, 
      "inputs": [[49, 0, 0], [50, 0, 1]]
    }, 
    {
      "op": "null", 
      "name": "vargnet_head_headstage_shortcut_conv2d_depthwise_bias", 
      "attr": {"__predict__": "False"}, 
      "inputs": []
    }, 
    {
      "op": "null", 
      "name": "vargnet_head_headstage_shortcut_conv2d_depthwise_bshift_shift", 
      "attr": {
        "__logging__": "True", 
        "__predict__": "False", 
        "bias_bits": "8", 
        "bits": "8", 
        "init_shift": "7", 
        "quantization_type": "bias", 
        "use_aux_shift": "True", 
        "vector_quanti": "True"
      }, 
      "inputs": []
    }, 
    {
      "op": "QuantizationSte", 
      "name": "vargnet_head_headstage_shortcut_conv2d_depthwise_bshift", 
      "attr": {
        "__logging__": "True", 
        "__predict__": "False", 
        "bias_bits": "8", 
        "bits": "8", 
        "init_shift": "7", 
        "quantization_type": "bias", 
        "use_aux_shift": "True", 
        "vector_quanti": "True"
      }, 
      "inputs": [[52, 0, 0], [53, 0, 1]]
    }, 
    {
      "op": "Convolution", 
      "name": "vargnet_head_headstage_shortcut_conv2d_depthwise", 
      "attr": {
        "__predict__": "False", 
        "__wd_mult__": "1", 
        "dilate": "(1, 1)", 
        "kernel": "(3, 3)", 
        "no_bias": "False", 
        "num_filter": "64", 
        "num_group": "8", 
        "pad": "(1, 1)", 
        "stride": "(2, 2)", 
        "workspace": "512"
      }, 
      "inputs": [[12, 0, 0], [51, 0, 0], [54, 0, 0]]
    }, 
    {
      "op": "null", 
      "name": "vargnet_head_headstage_shortcut_conv2d_depthwise_quantidata_shift", 
      "attr": {
        "__force_mirroring__": "True", 
        "__logging__": "True", 
        "__predict__": "False", 
        "bias_bits": "8", 
        "bits": "8", 
        "init_shift": "4", 
        "quantization_type": "data"
      }, 
      "inputs": []
    }, 
    {
      "op": "QuantizationSte", 
      "name": "vargnet_head_headstage_shortcut_conv2d_depthwise_quantidata", 
      "attr": {
        "__force_mirroring__": "True", 
        "__logging__": "True", 
        "__predict__": "False", 
        "bias_bits": "8", 
        "bits": "8", 
        "init_shift": "4", 
        "quantization_type": "data"
      }, 
      "inputs": [[55, 0, 0], [56, 0, 1]]
    }, 
    {
      "op": "null", 
      "name": "vargnet_head_headstage_shortcut_conv2d_pointwise_weight", 
      "attr": {"__predict__": "False"}, 
      "inputs": []
    }, 
    {
      "op": "null", 
      "name": "vargnet_head_headstage_shortcut_conv2d_pointwise_wshift_shift", 
      "attr": {
        "__logging__": "True", 
        "__predict__": "False", 
        "bias_bits": "8", 
        "bits": "8", 
        "init_shift": "7", 
        "quantization_type": "weight", 
        "use_aux_shift": "True", 
        "vector_quanti": "True"
      }, 
      "inputs": []
    }, 
    {
      "op": "QuantizationSte", 
      "name": "vargnet_head_headstage_shortcut_conv2d_pointwise_wshift", 
      "attr": {
        "__logging__": "True", 
        "__predict__": "False", 
        "bias_bits": "8", 
        "bits": "8", 
        "init_shift": "7", 
        "quantization_type": "weight", 
        "use_aux_shift": "True", 
        "vector_quanti": "True"
      }, 
      "inputs": [[58, 0, 0], [59, 0, 1]]
    }, 
    {
      "op": "null", 
      "name": "vargnet_head_headstage_shortcut_conv2d_pointwise_bias", 
      "attr": {"__predict__": "False"}, 
      "inputs": []
    }, 
    {
      "op": "null", 
      "name": "vargnet_head_headstage_shortcut_conv2d_pointwise_bshift_shift", 
      "attr": {
        "__logging__": "True", 
        "__predict__": "False", 
        "bias_bits": "8", 
        "bits": "8", 
        "init_shift": "7", 
        "quantization_type": "bias", 
        "use_aux_shift": "True", 
        "vector_quanti": "True"
      }, 
      "inputs": []
    }, 
    {
      "op": "QuantizationSte", 
      "name": "vargnet_head_headstage_shortcut_conv2d_pointwise_bshift", 
      "attr": {
        "__logging__": "True", 
        "__predict__": "False", 
        "bias_bits": "8", 
        "bits": "8", 
        "init_shift": "7", 
        "quantization_type": "bias", 
        "use_aux_shift": "True", 
        "vector_quanti": "True"
      }, 
      "inputs": [[61, 0, 0], [62, 0, 1]]
    }, 
    {
      "op": "Convolution", 
      "name": "vargnet_head_headstage_shortcut_conv2d_pointwise", 
      "attr": {
        "__predict__": "False", 
        "kernel": "(1, 1)", 
        "no_bias": "False", 
        "num_filter": "64", 
        "num_group": "1", 
        "pad": "(0, 0)", 
        "stride": "(1, 1)", 
        "workspace": "512"
      }, 
      "inputs": [[57, 0, 0], [60, 0, 0], [63, 0, 0]]
    }, 
    {
      "op": "null", 
      "name": "vargnet_head_headstage_shortcut_conv2d_pointwise_quantidata_shift", 
      "attr": {
        "__force_mirroring__": "True", 
        "__logging__": "True", 
        "__predict__": "False", 
        "bias_bits": "8", 
        "bits": "8", 
        "init_shift": "4", 
        "quantization_type": "data"
      }, 
      "inputs": []
    }, 
    {
      "op": "QuantizationSte", 
      "name": "vargnet_head_headstage_shortcut_conv2d_pointwise_quantidata", 
      "attr": {
        "__force_mirroring__": "True", 
        "__logging__": "True", 
        "__predict__": "False", 
        "bias_bits": "8", 
        "bits": "8", 
        "init_shift": "4", 
        "quantization_type": "data"
      }, 
      "inputs": [[64, 0, 0], [65, 0, 1]]
    }, 
    {
      "op": "elemwise_add", 
      "name": "_plus0", 
      "attr": {
        "__force_mirroring__": "True", 
        "__predict__": "False"
      }, 
      "inputs": [[48, 0, 0], [66, 0, 0]]
    }, 
    {
      "op": "null", 
      "name": "vargnet_head_headstage_sep2_data_conv2d_pointwise_quantidata_shift", 
      "attr": {
        "__force_mirroring__": "True", 
        "__logging__": "True", 
        "__predict__": "False", 
        "bias_bits": "8", 
        "bits": "8", 
        "init_shift": "4", 
        "quantization_type": "data"
      }, 
      "inputs": []
    }, 
    {
      "op": "QuantizationSte", 
      "name": "vargnet_head_headstage_sep2_data_conv2d_pointwise_quantidata", 
      "attr": {
        "__force_mirroring__": "True", 
        "__logging__": "True", 
        "__predict__": "False", 
        "bias_bits": "8", 
        "bits": "8", 
        "init_shift": "4", 
        "quantization_type": "data"
      }, 
      "inputs": [[67, 0, 0], [68, 0, 1]]
    }, 
    {
      "op": "null", 
      "name": "vargnetstage_2_unit_1_sep2_data_branch_conv2d_depthwise_weight", 
      "attr": {"__predict__": "False"}, 
      "inputs": []
    }, 
    {
      "op": "null", 
      "name": "vargnetstage_2_unit_1_sep2_data_branch_conv2d_depthwise_wshift_shift", 
      "attr": {
        "__logging__": "True", 
        "__predict__": "False", 
        "bias_bits": "8", 
        "bits": "8", 
        "init_shift": "7", 
        "quantization_type": "weight", 
        "use_aux_shift": "True", 
        "vector_quanti": "True"
      }, 
      "inputs": []
    }, 
    {
      "op": "QuantizationSte", 
      "name": "vargnetstage_2_unit_1_sep2_data_branch_conv2d_depthwise_wshift", 
      "attr": {
        "__logging__": "True", 
        "__predict__": "False", 
        "bias_bits": "8", 
        "bits": "8", 
        "init_shift": "7", 
        "quantization_type": "weight", 
        "use_aux_shift": "True", 
        "vector_quanti": "True"
      }, 
      "inputs": [[70, 0, 0], [71, 0, 1]]
    }, 
    {
      "op": "null", 
      "name": "vargnetstage_2_unit_1_sep2_data_branch_conv2d_depthwise_bias", 
      "attr": {"__predict__": "False"}, 
      "inputs": []
    }, 
    {
      "op": "null", 
      "name": "vargnetstage_2_unit_1_sep2_data_branch_conv2d_depthwise_bshift_shift", 
      "attr": {
        "__logging__": "True", 
        "__predict__": "False", 
        "bias_bits": "8", 
        "bits": "8", 
        "init_shift": "7", 
        "quantization_type": "bias", 
        "use_aux_shift": "True", 
        "vector_quanti": "True"
      }, 
      "inputs": []
    }, 
    {
      "op": "QuantizationSte", 
      "name": "vargnetstage_2_unit_1_sep2_data_branch_conv2d_depthwise_bshift", 
      "attr": {
        "__logging__": "True", 
        "__predict__": "False", 
        "bias_bits": "8", 
        "bits": "8", 
        "init_shift": "7", 
        "quantization_type": "bias", 
        "use_aux_shift": "True", 
        "vector_quanti": "True"
      }, 
      "inputs": [[73, 0, 0], [74, 0, 1]]
    }, 
    {
      "op": "Convolution", 
      "name": "vargnetstage_2_unit_1_sep2_data_branch_conv2d_depthwise", 
      "attr": {
        "__predict__": "False", 
        "__wd_mult__": "1", 
        "dilate": "(1, 1)", 
        "kernel": "(3, 3)", 
        "no_bias": "False", 
        "num_filter": "128", 
        "num_group": "8", 
        "pad": "(1, 1)", 
        "stride": "(1, 1)", 
        "workspace": "512"
      }, 
      "inputs": [[69, 0, 0], [72, 0, 0], [75, 0, 0]]
    }, 
    {
      "op": "QuantiActivation", 
      "name": "quantiactivation3", 
      "attr": {
        "__force_mirroring__": "True", 
        "__predict__": "False", 
        "act_type": "relu"
      }, 
      "inputs": [[76, 0, 0]]
    }, 
    {
      "op": "null", 
      "name": "vargnetstage_2_unit_1_sep2_data_branch_conv2d_depthwise_quantidata_shift", 
      "attr": {
        "__force_mirroring__": "True", 
        "__logging__": "True", 
        "__predict__": "False", 
        "bias_bits": "8", 
        "bits": "8", 
        "init_shift": "4", 
        "quantization_type": "data"
      }, 
      "inputs": []
    }, 
    {
      "op": "QuantizationSte", 
      "name": "vargnetstage_2_unit_1_sep2_data_branch_conv2d_depthwise_quantidata", 
      "attr": {
        "__force_mirroring__": "True", 
        "__logging__": "True", 
        "__predict__": "False", 
        "bias_bits": "8", 
        "bits": "8", 
        "init_shift": "4", 
        "quantization_type": "data"
      }, 
      "inputs": [[77, 0, 0], [78, 0, 1]]
    }, 
    {
      "op": "null", 
      "name": "vargnetstage_2_unit_1_sep2_data_branch_conv2d_pointwise_weight", 
      "attr": {"__predict__": "False"}, 
      "inputs": []
    }, 
    {
      "op": "null", 
      "name": "vargnetstage_2_unit_1_sep2_data_branch_conv2d_pointwise_wshift_shift", 
      "attr": {
        "__logging__": "True", 
        "__predict__": "False", 
        "bias_bits": "8", 
        "bits": "8", 
        "init_shift": "7", 
        "quantization_type": "weight", 
        "use_aux_shift": "True", 
        "vector_quanti": "True"
      }, 
      "inputs": []
    }, 
    {
      "op": "QuantizationSte", 
      "name": "vargnetstage_2_unit_1_sep2_data_branch_conv2d_pointwise_wshift", 
      "attr": {
        "__logging__": "True", 
        "__predict__": "False", 
        "bias_bits": "8", 
        "bits": "8", 
        "init_shift": "7", 
        "quantization_type": "weight", 
        "use_aux_shift": "True", 
        "vector_quanti": "True"
      }, 
      "inputs": [[80, 0, 0], [81, 0, 1]]
    }, 
    {
      "op": "null", 
      "name": "vargnetstage_2_unit_1_sep2_data_branch_conv2d_pointwise_bias", 
      "attr": {"__predict__": "False"}, 
      "inputs": []
    }, 
    {
      "op": "null", 
      "name": "vargnetstage_2_unit_1_sep2_data_branch_conv2d_pointwise_bshift_shift", 
      "attr": {
        "__logging__": "True", 
        "__predict__": "False", 
        "bias_bits": "8", 
        "bits": "8", 
        "init_shift": "7", 
        "quantization_type": "bias", 
        "use_aux_shift": "True", 
        "vector_quanti": "True"
      }, 
      "inputs": []
    }, 
    {
      "op": "QuantizationSte", 
      "name": "vargnetstage_2_unit_1_sep2_data_branch_conv2d_pointwise_bshift", 
      "attr": {
        "__logging__": "True", 
        "__predict__": "False", 
        "bias_bits": "8", 
        "bits": "8", 
        "init_shift": "7", 
        "quantization_type": "bias", 
        "use_aux_shift": "True", 
        "vector_quanti": "True"
      }, 
      "inputs": [[83, 0, 0], [84, 0, 1]]
    }, 
    {
      "op": "Convolution", 
      "name": "vargnetstage_2_unit_1_sep2_data_branch_conv2d_pointwise", 
      "attr": {
        "__predict__": "False", 
        "kernel": "(1, 1)", 
        "no_bias": "False", 
        "num_filter": "80", 
        "num_group": "1", 
        "pad": "(0, 0)", 
        "stride": "(1, 1)", 
        "workspace": "512"
      }, 
      "inputs": [[79, 0, 0], [82, 0, 0], [85, 0, 0]]
    }, 
    {
      "op": "null", 
      "name": "vargnetstage_2_unit_1_sep1_data_branch_conv2d_depthwise_weight", 
      "attr": {"__predict__": "False"}, 
      "inputs": []
    }, 
    {
      "op": "null", 
      "name": "vargnetstage_2_unit_1_sep1_data_branch_conv2d_depthwise_wshift_shift", 
      "attr": {
        "__logging__": "True", 
        "__predict__": "False", 
        "bias_bits": "8", 
        "bits": "8", 
        "init_shift": "7", 
        "quantization_type": "weight", 
        "use_aux_shift": "True", 
        "vector_quanti": "True"
      }, 
      "inputs": []
    }, 
    {
      "op": "QuantizationSte", 
      "name": "vargnetstage_2_unit_1_sep1_data_branch_conv2d_depthwise_wshift", 
      "attr": {
        "__logging__": "True", 
        "__predict__": "False", 
        "bias_bits": "8", 
        "bits": "8", 
        "init_shift": "7", 
        "quantization_type": "weight", 
        "use_aux_shift": "True", 
        "vector_quanti": "True"
      }, 
      "inputs": [[87, 0, 0], [88, 0, 1]]
    }, 
    {
      "op": "null", 
      "name": "vargnetstage_2_unit_1_sep1_data_branch_conv2d_depthwise_bias", 
      "attr": {"__predict__": "False"}, 
      "inputs": []
    }, 
    {
      "op": "null", 
      "name": "vargnetstage_2_unit_1_sep1_data_branch_conv2d_depthwise_bshift_shift", 
      "attr": {
        "__logging__": "True", 
        "__predict__": "False", 
        "bias_bits": "8", 
        "bits": "8", 
        "init_shift": "7", 
        "quantization_type": "bias", 
        "use_aux_shift": "True", 
        "vector_quanti": "True"
      }, 
      "inputs": []
    }, 
    {
      "op": "QuantizationSte", 
      "name": "vargnetstage_2_unit_1_sep1_data_branch_conv2d_depthwise_bshift", 
      "attr": {
        "__logging__": "True", 
        "__predict__": "False", 
        "bias_bits": "8", 
        "bits": "8", 
        "init_shift": "7", 
        "quantization_type": "bias", 
        "use_aux_shift": "True", 
        "vector_quanti": "True"
      }, 
      "inputs": [[90, 0, 0], [91, 0, 1]]
    }, 
    {
      "op": "Convolution", 
      "name": "vargnetstage_2_unit_1_sep1_data_branch_conv2d_depthwise", 
      "attr": {
        "__predict__": "False", 
        "__wd_mult__": "1", 
        "dilate": "(1, 1)", 
        "kernel": "(3, 3)", 
        "no_bias": "False", 
        "num_filter": "128", 
        "num_group": "8", 
        "pad": "(1, 1)", 
        "stride": "(1, 1)", 
        "workspace": "512"
      }, 
      "inputs": [[69, 0, 0], [89, 0, 0], [92, 0, 0]]
    }, 
    {
      "op": "null", 
      "name": "vargnetstage_2_unit_1_sep1_data_branch_conv2d_depthwise_quantidata_shift", 
      "attr": {
        "__force_mirroring__": "True", 
        "__logging__": "True", 
        "__predict__": "False", 
        "bias_bits": "8", 
        "bits": "8", 
        "init_shift": "4", 
        "quantization_type": "data"
      }, 
      "inputs": []
    }, 
    {
      "op": "QuantizationSte", 
      "name": "vargnetstage_2_unit_1_sep1_data_branch_conv2d_depthwise_quantidata", 
      "attr": {
        "__force_mirroring__": "True", 
        "__logging__": "True", 
        "__predict__": "False", 
        "bias_bits": "8", 
        "bits": "8", 
        "init_shift": "4", 
        "quantization_type": "data"
      }, 
      "inputs": [[93, 0, 0], [94, 0, 1]]
    }, 
    {
      "op": "null", 
      "name": "vargnetstage_2_unit_1_sep1_data_branch_conv2d_pointwise_weight", 
      "attr": {"__predict__": "False"}, 
      "inputs": []
    }, 
    {
      "op": "null", 
      "name": "vargnetstage_2_unit_1_sep1_data_branch_conv2d_pointwise_wshift_shift", 
      "attr": {
        "__logging__": "True", 
        "__predict__": "False", 
        "bias_bits": "8", 
        "bits": "8", 
        "init_shift": "7", 
        "quantization_type": "weight", 
        "use_aux_shift": "True", 
        "vector_quanti": "True"
      }, 
      "inputs": []
    }, 
    {
      "op": "QuantizationSte", 
      "name": "vargnetstage_2_unit_1_sep1_data_branch_conv2d_pointwise_wshift", 
      "attr": {
        "__logging__": "True", 
        "__predict__": "False", 
        "bias_bits": "8", 
        "bits": "8", 
        "init_shift": "7", 
        "quantization_type": "weight", 
        "use_aux_shift": "True", 
        "vector_quanti": "True"
      }, 
      "inputs": [[96, 0, 0], [97, 0, 1]]
    }, 
    {
      "op": "null", 
      "name": "vargnetstage_2_unit_1_sep1_data_branch_conv2d_pointwise_bias", 
      "attr": {"__predict__": "False"}, 
      "inputs": []
    }, 
    {
      "op": "null", 
      "name": "vargnetstage_2_unit_1_sep1_data_branch_conv2d_pointwise_bshift_shift", 
      "attr": {
        "__logging__": "True", 
        "__predict__": "False", 
        "bias_bits": "8", 
        "bits": "8", 
        "init_shift": "7", 
        "quantization_type": "bias", 
        "use_aux_shift": "True", 
        "vector_quanti": "True"
      }, 
      "inputs": []
    }, 
    {
      "op": "QuantizationSte", 
      "name": "vargnetstage_2_unit_1_sep1_data_branch_conv2d_pointwise_bshift", 
      "attr": {
        "__logging__": "True", 
        "__predict__": "False", 
        "bias_bits": "8", 
        "bits": "8", 
        "init_shift": "7", 
        "quantization_type": "bias", 
        "use_aux_shift": "True", 
        "vector_quanti": "True"
      }, 
      "inputs": [[99, 0, 0], [100, 0, 1]]
    }, 
    {
      "op": "Convolution", 
      "name": "vargnetstage_2_unit_1_sep1_data_branch_conv2d_pointwise", 
      "attr": {
        "__predict__": "False", 
        "kernel": "(1, 1)", 
        "no_bias": "False", 
        "num_filter": "80", 
        "num_group": "1", 
        "pad": "(0, 0)", 
        "stride": "(1, 1)", 
        "workspace": "512"
      }, 
      "inputs": [[95, 0, 0], [98, 0, 0], [101, 0, 0]]
    }, 
    {
      "op": "null", 
      "name": "vargnetstage_2_unit_1_sep1_data_branch_conv2d_pointwise_quantidata_shift", 
      "attr": {
        "__force_mirroring__": "True", 
        "__logging__": "True", 
        "__predict__": "False", 
        "bias_bits": "8", 
        "bits": "8", 
        "init_shift": "4", 
        "quantization_type": "data"
      }, 
      "inputs": []
    }, 
    {
      "op": "QuantizationSte", 
      "name": "vargnetstage_2_unit_1_sep1_data_branch_conv2d_pointwise_quantidata", 
      "attr": {
        "__force_mirroring__": "True", 
        "__logging__": "True", 
        "__predict__": "False", 
        "bias_bits": "8", 
        "bits": "8", 
        "init_shift": "4", 
        "quantization_type": "data"
      }, 
      "inputs": [[102, 0, 0], [103, 0, 1]]
    }, 
    {
      "op": "elemwise_add", 
      "name": "_plus1", 
      "attr": {
        "__force_mirroring__": "True", 
        "__predict__": "False"
      }, 
      "inputs": [[86, 0, 0], [104, 0, 0]]
    }, 
    {
      "op": "QuantiActivation", 
      "name": "quantiactivation4", 
      "attr": {
        "__force_mirroring__": "True", 
        "__predict__": "False", 
        "act_type": "relu"
      }, 
      "inputs": [[105, 0, 0]]
    }, 
    {
      "op": "null", 
      "name": "vargnetstage_2_unit_1_sep2_data_branch_conv2d_pointwise_quantidata_shift", 
      "attr": {
        "__force_mirroring__": "True", 
        "__logging__": "True", 
        "__predict__": "False", 
        "bias_bits": "8", 
        "bits": "8", 
        "init_shift": "4", 
        "quantization_type": "data"
      }, 
      "inputs": []
    }, 
    {
      "op": "QuantizationSte", 
      "name": "vargnetstage_2_unit_1_sep2_data_branch_conv2d_pointwise_quantidata", 
      "attr": {
        "__force_mirroring__": "True", 
        "__logging__": "True", 
        "__predict__": "False", 
        "bias_bits": "8", 
        "bits": "8", 
        "init_shift": "4", 
        "quantization_type": "data"
      }, 
      "inputs": [[106, 0, 0], [107, 0, 1]]
    }, 
    {
      "op": "null", 
      "name": "vargnetstage_2_unit_1_sep2_data_conv2d_depthwise_weight", 
      "attr": {"__predict__": "False"}, 
      "inputs": []
    }, 
    {
      "op": "null", 
      "name": "vargnetstage_2_unit_1_sep2_data_conv2d_depthwise_wshift_shift", 
      "attr": {
        "__logging__": "True", 
        "__predict__": "False", 
        "bias_bits": "8", 
        "bits": "8", 
        "init_shift": "7", 
        "quantization_type": "weight", 
        "use_aux_shift": "True", 
        "vector_quanti": "True"
      }, 
      "inputs": []
    }, 
    {
      "op": "QuantizationSte", 
      "name": "vargnetstage_2_unit_1_sep2_data_conv2d_depthwise_wshift", 
      "attr": {
        "__logging__": "True", 
        "__predict__": "False", 
        "bias_bits": "8", 
        "bits": "8", 
        "init_shift": "7", 
        "quantization_type": "weight", 
        "use_aux_shift": "True", 
        "vector_quanti": "True"
      }, 
      "inputs": [[109, 0, 0], [110, 0, 1]]
    }, 
    {
      "op": "null", 
      "name": "vargnetstage_2_unit_1_sep2_data_conv2d_depthwise_bias", 
      "attr": {"__predict__": "False"}, 
      "inputs": []
    }, 
    {
      "op": "null", 
      "name": "vargnetstage_2_unit_1_sep2_data_conv2d_depthwise_bshift_shift", 
      "attr": {
        "__logging__": "True", 
        "__predict__": "False", 
        "bias_bits": "8", 
        "bits": "8", 
        "init_shift": "7", 
        "quantization_type": "bias", 
        "use_aux_shift": "True", 
        "vector_quanti": "True"
      }, 
      "inputs": []
    }, 
    {
      "op": "QuantizationSte", 
      "name": "vargnetstage_2_unit_1_sep2_data_conv2d_depthwise_bshift", 
      "attr": {
        "__logging__": "True", 
        "__predict__": "False", 
        "bias_bits": "8", 
        "bits": "8", 
        "init_shift": "7", 
        "quantization_type": "bias", 
        "use_aux_shift": "True", 
        "vector_quanti": "True"
      }, 
      "inputs": [[112, 0, 0], [113, 0, 1]]
    }, 
    {
      "op": "Convolution", 
      "name": "vargnetstage_2_unit_1_sep2_data_conv2d_depthwise", 
      "attr": {
        "__predict__": "False", 
        "__wd_mult__": "1", 
        "dilate": "(1, 1)", 
        "kernel": "(3, 3)", 
        "no_bias": "False", 
        "num_filter": "160", 
        "num_group": "10", 
        "pad": "(1, 1)", 
        "stride": "(1, 1)", 
        "workspace": "512"
      }, 
      "inputs": [[108, 0, 0], [111, 0, 0], [114, 0, 0]]
    }, 
    {
      "op": "null", 
      "name": "vargnetstage_2_unit_1_sep2_data_conv2d_depthwise_quantidata_shift", 
      "attr": {
        "__force_mirroring__": "True", 
        "__logging__": "True", 
        "__predict__": "False", 
        "bias_bits": "8", 
        "bits": "8", 
        "init_shift": "4", 
        "quantization_type": "data"
      }, 
      "inputs": []
    }, 
    {
      "op": "QuantizationSte", 
      "name": "vargnetstage_2_unit_1_sep2_data_conv2d_depthwise_quantidata", 
      "attr": {
        "__force_mirroring__": "True", 
        "__logging__": "True", 
        "__predict__": "False", 
        "bias_bits": "8", 
        "bits": "8", 
        "init_shift": "4", 
        "quantization_type": "data"
      }, 
      "inputs": [[115, 0, 0], [116, 0, 1]]
    }, 
    {
      "op": "null", 
      "name": "vargnetstage_2_unit_1_sep2_data_conv2d_pointwise_weight", 
      "attr": {"__predict__": "False"}, 
      "inputs": []
    }, 
    {
      "op": "null", 
      "name": "vargnetstage_2_unit_1_sep2_data_conv2d_pointwise_wshift_shift", 
      "attr": {
        "__logging__": "True", 
        "__predict__": "False", 
        "bias_bits": "8", 
        "bits": "8", 
        "init_shift": "7", 
        "quantization_type": "weight", 
        "use_aux_shift": "True", 
        "vector_quanti": "True"
      }, 
      "inputs": []
    }, 
    {
      "op": "QuantizationSte", 
      "name": "vargnetstage_2_unit_1_sep2_data_conv2d_pointwise_wshift", 
      "attr": {
        "__logging__": "True", 
        "__predict__": "False", 
        "bias_bits": "8", 
        "bits": "8", 
        "init_shift": "7", 
        "quantization_type": "weight", 
        "use_aux_shift": "True", 
        "vector_quanti": "True"
      }, 
      "inputs": [[118, 0, 0], [119, 0, 1]]
    }, 
    {
      "op": "null", 
      "name": "vargnetstage_2_unit_1_sep2_data_conv2d_pointwise_bias", 
      "attr": {"__predict__": "False"}, 
      "inputs": []
    }, 
    {
      "op": "null", 
      "name": "vargnetstage_2_unit_1_sep2_data_conv2d_pointwise_bshift_shift", 
      "attr": {
        "__logging__": "True", 
        "__predict__": "False", 
        "bias_bits": "8", 
        "bits": "8", 
        "init_shift": "7", 
        "quantization_type": "bias", 
        "use_aux_shift": "True", 
        "vector_quanti": "True"
      }, 
      "inputs": []
    }, 
    {
      "op": "QuantizationSte", 
      "name": "vargnetstage_2_unit_1_sep2_data_conv2d_pointwise_bshift", 
      "attr": {
        "__logging__": "True", 
        "__predict__": "False", 
        "bias_bits": "8", 
        "bits": "8", 
        "init_shift": "7", 
        "quantization_type": "bias", 
        "use_aux_shift": "True", 
        "vector_quanti": "True"
      }, 
      "inputs": [[121, 0, 0], [122, 0, 1]]
    }, 
    {
      "op": "Convolution", 
      "name": "vargnetstage_2_unit_1_sep2_data_conv2d_pointwise", 
      "attr": {
        "__predict__": "False", 
        "kernel": "(1, 1)", 
        "no_bias": "False", 
        "num_filter": "80", 
        "num_group": "1", 
        "pad": "(0, 0)", 
        "stride": "(1, 1)", 
        "workspace": "512"
      }, 
      "inputs": [[117, 0, 0], [120, 0, 0], [123, 0, 0]]
    }, 
    {
      "op": "null", 
      "name": "vargnetstage_2_unit_1_shortcut_conv2d_depthwise_weight", 
      "attr": {"__predict__": "False"}, 
      "inputs": []
    }, 
    {
      "op": "null", 
      "name": "vargnetstage_2_unit_1_shortcut_conv2d_depthwise_wshift_shift", 
      "attr": {
        "__logging__": "True", 
        "__predict__": "False", 
        "bias_bits": "8", 
        "bits": "8", 
        "init_shift": "7", 
        "quantization_type": "weight", 
        "use_aux_shift": "True", 
        "vector_quanti": "True"
      }, 
      "inputs": []
    }, 
    {
      "op": "QuantizationSte", 
      "name": "vargnetstage_2_unit_1_shortcut_conv2d_depthwise_wshift", 
      "attr": {
        "__logging__": "True", 
        "__predict__": "False", 
        "bias_bits": "8", 
        "bits": "8", 
        "init_shift": "7", 
        "quantization_type": "weight", 
        "use_aux_shift": "True", 
        "vector_quanti": "True"
      }, 
      "inputs": [[125, 0, 0], [126, 0, 1]]
    }, 
    {
      "op": "null", 
      "name": "vargnetstage_2_unit_1_shortcut_conv2d_depthwise_bias", 
      "attr": {"__predict__": "False"}, 
      "inputs": []
    }, 
    {
      "op": "null", 
      "name": "vargnetstage_2_unit_1_shortcut_conv2d_depthwise_bshift_shift", 
      "attr": {
        "__logging__": "True", 
        "__predict__": "False", 
        "bias_bits": "8", 
        "bits": "8", 
        "init_shift": "7", 
        "quantization_type": "bias", 
        "use_aux_shift": "True", 
        "vector_quanti": "True"
      }, 
      "inputs": []
    }, 
    {
      "op": "QuantizationSte", 
      "name": "vargnetstage_2_unit_1_shortcut_conv2d_depthwise_bshift", 
      "attr": {
        "__logging__": "True", 
        "__predict__": "False", 
        "bias_bits": "8", 
        "bits": "8", 
        "init_shift": "7", 
        "quantization_type": "bias", 
        "use_aux_shift": "True", 
        "vector_quanti": "True"
      }, 
      "inputs": [[128, 0, 0], [129, 0, 1]]
    }, 
    {
      "op": "Convolution", 
      "name": "vargnetstage_2_unit_1_shortcut_conv2d_depthwise", 
      "attr": {
        "__predict__": "False", 
        "__wd_mult__": "1", 
        "dilate": "(1, 1)", 
        "kernel": "(3, 3)", 
        "no_bias": "False", 
        "num_filter": "128", 
        "num_group": "8", 
        "pad": "(1, 1)", 
        "stride": "(1, 1)", 
        "workspace": "512"
      }, 
      "inputs": [[69, 0, 0], [127, 0, 0], [130, 0, 0]]
    }, 
    {
      "op": "null", 
      "name": "vargnetstage_2_unit_1_shortcut_conv2d_depthwise_quantidata_shift", 
      "attr": {
        "__force_mirroring__": "True", 
        "__logging__": "True", 
        "__predict__": "False", 
        "bias_bits": "8", 
        "bits": "8", 
        "init_shift": "4", 
        "quantization_type": "data"
      }, 
      "inputs": []
    }, 
    {
      "op": "QuantizationSte", 
      "name": "vargnetstage_2_unit_1_shortcut_conv2d_depthwise_quantidata", 
      "attr": {
        "__force_mirroring__": "True", 
        "__logging__": "True", 
        "__predict__": "False", 
        "bias_bits": "8", 
        "bits": "8", 
        "init_shift": "4", 
        "quantization_type": "data"
      }, 
      "inputs": [[131, 0, 0], [132, 0, 1]]
    }, 
    {
      "op": "null", 
      "name": "vargnetstage_2_unit_1_shortcut_conv2d_pointwise_weight", 
      "attr": {"__predict__": "False"}, 
      "inputs": []
    }, 
    {
      "op": "null", 
      "name": "vargnetstage_2_unit_1_shortcut_conv2d_pointwise_wshift_shift", 
      "attr": {
        "__logging__": "True", 
        "__predict__": "False", 
        "bias_bits": "8", 
        "bits": "8", 
        "init_shift": "7", 
        "quantization_type": "weight", 
        "use_aux_shift": "True", 
        "vector_quanti": "True"
      }, 
      "inputs": []
    }, 
    {
      "op": "QuantizationSte", 
      "name": "vargnetstage_2_unit_1_shortcut_conv2d_pointwise_wshift", 
      "attr": {
        "__logging__": "True", 
        "__predict__": "False", 
        "bias_bits": "8", 
        "bits": "8", 
        "init_shift": "7", 
        "quantization_type": "weight", 
        "use_aux_shift": "True", 
        "vector_quanti": "True"
      }, 
      "inputs": [[134, 0, 0], [135, 0, 1]]
    }, 
    {
      "op": "null", 
      "name": "vargnetstage_2_unit_1_shortcut_conv2d_pointwise_bias", 
      "attr": {"__predict__": "False"}, 
      "inputs": []
    }, 
    {
      "op": "null", 
      "name": "vargnetstage_2_unit_1_shortcut_conv2d_pointwise_bshift_shift", 
      "attr": {
        "__logging__": "True", 
        "__predict__": "False", 
        "bias_bits": "8", 
        "bits": "8", 
        "init_shift": "7", 
        "quantization_type": "bias", 
        "use_aux_shift": "True", 
        "vector_quanti": "True"
      }, 
      "inputs": []
    }, 
    {
      "op": "QuantizationSte", 
      "name": "vargnetstage_2_unit_1_shortcut_conv2d_pointwise_bshift", 
      "attr": {
        "__logging__": "True", 
        "__predict__": "False", 
        "bias_bits": "8", 
        "bits": "8", 
        "init_shift": "7", 
        "quantization_type": "bias", 
        "use_aux_shift": "True", 
        "vector_quanti": "True"
      }, 
      "inputs": [[137, 0, 0], [138, 0, 1]]
    }, 
    {
      "op": "Convolution", 
      "name": "vargnetstage_2_unit_1_shortcut_conv2d_pointwise", 
      "attr": {
        "__predict__": "False", 
        "kernel": "(1, 1)", 
        "no_bias": "False", 
        "num_filter": "80", 
        "num_group": "1", 
        "pad": "(0, 0)", 
        "stride": "(1, 1)", 
        "workspace": "512"
      }, 
      "inputs": [[133, 0, 0], [136, 0, 0], [139, 0, 0]]
    }, 
    {
      "op": "null", 
      "name": "vargnetstage_2_unit_1_shortcut_conv2d_pointwise_quantidata_shift", 
      "attr": {
        "__force_mirroring__": "True", 
        "__logging__": "True", 
        "__predict__": "False", 
        "bias_bits": "8", 
        "bits": "8", 
        "init_shift": "4", 
        "quantization_type": "data"
      }, 
      "inputs": []
    }, 
    {
      "op": "QuantizationSte", 
      "name": "vargnetstage_2_unit_1_shortcut_conv2d_pointwise_quantidata", 
      "attr": {
        "__force_mirroring__": "True", 
        "__logging__": "True", 
        "__predict__": "False", 
        "bias_bits": "8", 
        "bits": "8", 
        "init_shift": "4", 
        "quantization_type": "data"
      }, 
      "inputs": [[140, 0, 0], [141, 0, 1]]
    }, 
    {
      "op": "elemwise_add", 
      "name": "_plus2", 
      "attr": {
        "__force_mirroring__": "True", 
        "__predict__": "False"
      }, 
      "inputs": [[124, 0, 0], [142, 0, 0]]
    }, 
    {
      "op": "null", 
      "name": "vargnetstage_2_unit_1_sep2_data_conv2d_pointwise_quantidata_shift", 
      "attr": {
        "__force_mirroring__": "True", 
        "__logging__": "True", 
        "__predict__": "False", 
        "bias_bits": "8", 
        "bits": "8", 
        "init_shift": "4", 
        "quantization_type": "data"
      }, 
      "inputs": []
    }, 
    {
      "op": "QuantizationSte", 
      "name": "vargnetstage_2_unit_1_sep2_data_conv2d_pointwise_quantidata", 
      "attr": {
        "__force_mirroring__": "True", 
        "__logging__": "True", 
        "__predict__": "False", 
        "bias_bits": "8", 
        "bits": "8", 
        "init_shift": "4", 
        "quantization_type": "data"
      }, 
      "inputs": [[143, 0, 0], [144, 0, 1]]
    }, 
    {
      "op": "null", 
      "name": "vargnetstage_2_unit_2_sep1_data_conv2d_depthwise_weight", 
      "attr": {"__predict__": "False"}, 
      "inputs": []
    }, 
    {
      "op": "null", 
      "name": "vargnetstage_2_unit_2_sep1_data_conv2d_depthwise_wshift_shift", 
      "attr": {
        "__logging__": "True", 
        "__predict__": "False", 
        "bias_bits": "8", 
        "bits": "8", 
        "init_shift": "7", 
        "quantization_type": "weight", 
        "use_aux_shift": "True", 
        "vector_quanti": "True"
      }, 
      "inputs": []
    }, 
    {
      "op": "QuantizationSte", 
      "name": "vargnetstage_2_unit_2_sep1_data_conv2d_depthwise_wshift", 
      "attr": {
        "__logging__": "True", 
        "__predict__": "False", 
        "bias_bits": "8", 
        "bits": "8", 
        "init_shift": "7", 
        "quantization_type": "weight", 
        "use_aux_shift": "True", 
        "vector_quanti": "True"
      }, 
      "inputs": [[146, 0, 0], [147, 0, 1]]
    }, 
    {
      "op": "null", 
      "name": "vargnetstage_2_unit_2_sep1_data_conv2d_depthwise_bias", 
      "attr": {"__predict__": "False"}, 
      "inputs": []
    }, 
    {
      "op": "null", 
      "name": "vargnetstage_2_unit_2_sep1_data_conv2d_depthwise_bshift_shift", 
      "attr": {
        "__logging__": "True", 
        "__predict__": "False", 
        "bias_bits": "8", 
        "bits": "8", 
        "init_shift": "7", 
        "quantization_type": "bias", 
        "use_aux_shift": "True", 
        "vector_quanti": "True"
      }, 
      "inputs": []
    }, 
    {
      "op": "QuantizationSte", 
      "name": "vargnetstage_2_unit_2_sep1_data_conv2d_depthwise_bshift", 
      "attr": {
        "__logging__": "True", 
        "__predict__": "False", 
        "bias_bits": "8", 
        "bits": "8", 
        "init_shift": "7", 
        "quantization_type": "bias", 
        "use_aux_shift": "True", 
        "vector_quanti": "True"
      }, 
      "inputs": [[149, 0, 0], [150, 0, 1]]
    }, 
    {
      "op": "Convolution", 
      "name": "vargnetstage_2_unit_2_sep1_data_conv2d_depthwise", 
      "attr": {
        "__predict__": "False", 
        "__wd_mult__": "1", 
        "dilate": "(1, 1)", 
        "kernel": "(3, 3)", 
        "no_bias": "False", 
        "num_filter": "160", 
        "num_group": "10", 
        "pad": "(1, 1)", 
        "stride": "(1, 1)", 
        "workspace": "512"
      }, 
      "inputs": [[145, 0, 0], [148, 0, 0], [151, 0, 0]]
    }, 
    {
      "op": "QuantiActivation", 
      "name": "quantiactivation5", 
      "attr": {
        "__force_mirroring__": "True", 
        "__predict__": "False", 
        "act_type": "relu"
      }, 
      "inputs": [[152, 0, 0]]
    }, 
    {
      "op": "null", 
      "name": "vargnetstage_2_unit_2_sep1_data_conv2d_depthwise_quantidata_shift", 
      "attr": {
        "__force_mirroring__": "True", 
        "__logging__": "True", 
        "__predict__": "False", 
        "bias_bits": "8", 
        "bits": "8", 
        "init_shift": "4", 
        "quantization_type": "data"
      }, 
      "inputs": []
    }, 
    {
      "op": "QuantizationSte", 
      "name": "vargnetstage_2_unit_2_sep1_data_conv2d_depthwise_quantidata", 
      "attr": {
        "__force_mirroring__": "True", 
        "__logging__": "True", 
        "__predict__": "False", 
        "bias_bits": "8", 
        "bits": "8", 
        "init_shift": "4", 
        "quantization_type": "data"
      }, 
      "inputs": [[153, 0, 0], [154, 0, 1]]
    }, 
    {
      "op": "null", 
      "name": "vargnetstage_2_unit_2_sep1_data_conv2d_pointwise_weight", 
      "attr": {"__predict__": "False"}, 
      "inputs": []
    }, 
    {
      "op": "null", 
      "name": "vargnetstage_2_unit_2_sep1_data_conv2d_pointwise_wshift_shift", 
      "attr": {
        "__logging__": "True", 
        "__predict__": "False", 
        "bias_bits": "8", 
        "bits": "8", 
        "init_shift": "7", 
        "quantization_type": "weight", 
        "use_aux_shift": "True", 
        "vector_quanti": "True"
      }, 
      "inputs": []
    }, 
    {
      "op": "QuantizationSte", 
      "name": "vargnetstage_2_unit_2_sep1_data_conv2d_pointwise_wshift", 
      "attr": {
        "__logging__": "True", 
        "__predict__": "False", 
        "bias_bits": "8", 
        "bits": "8", 
        "init_shift": "7", 
        "quantization_type": "weight", 
        "use_aux_shift": "True", 
        "vector_quanti": "True"
      }, 
      "inputs": [[156, 0, 0], [157, 0, 1]]
    }, 
    {
      "op": "null", 
      "name": "vargnetstage_2_unit_2_sep1_data_conv2d_pointwise_bias", 
      "attr": {"__predict__": "False"}, 
      "inputs": []
    }, 
    {
      "op": "null", 
      "name": "vargnetstage_2_unit_2_sep1_data_conv2d_pointwise_bshift_shift", 
      "attr": {
        "__logging__": "True", 
        "__predict__": "False", 
        "bias_bits": "8", 
        "bits": "8", 
        "init_shift": "7", 
        "quantization_type": "bias", 
        "use_aux_shift": "True", 
        "vector_quanti": "True"
      }, 
      "inputs": []
    }, 
    {
      "op": "QuantizationSte", 
      "name": "vargnetstage_2_unit_2_sep1_data_conv2d_pointwise_bshift", 
      "attr": {
        "__logging__": "True", 
        "__predict__": "False", 
        "bias_bits": "8", 
        "bits": "8", 
        "init_shift": "7", 
        "quantization_type": "bias", 
        "use_aux_shift": "True", 
        "vector_quanti": "True"
      }, 
      "inputs": [[159, 0, 0], [160, 0, 1]]
    }, 
    {
      "op": "Convolution", 
      "name": "vargnetstage_2_unit_2_sep1_data_conv2d_pointwise", 
      "attr": {
        "__predict__": "False", 
        "kernel": "(1, 1)", 
        "no_bias": "False", 
        "num_filter": "80", 
        "num_group": "1", 
        "pad": "(0, 0)", 
        "stride": "(1, 1)", 
        "workspace": "512"
      }, 
      "inputs": [[155, 0, 0], [158, 0, 0], [161, 0, 0]]
    }, 
    {
      "op": "QuantiActivation", 
      "name": "quantiactivation6", 
      "attr": {
        "__force_mirroring__": "True", 
        "__predict__": "False", 
        "act_type": "relu"
      }, 
      "inputs": [[162, 0, 0]]
    }, 
    {
      "op": "null", 
      "name": "vargnetstage_2_unit_2_sep1_data_conv2d_pointwise_quantidata_shift", 
      "attr": {
        "__force_mirroring__": "True", 
        "__logging__": "True", 
        "__predict__": "False", 
        "bias_bits": "8", 
        "bits": "8", 
        "init_shift": "4", 
        "quantization_type": "data"
      }, 
      "inputs": []
    }, 
    {
      "op": "QuantizationSte", 
      "name": "vargnetstage_2_unit_2_sep1_data_conv2d_pointwise_quantidata", 
      "attr": {
        "__force_mirroring__": "True", 
        "__logging__": "True", 
        "__predict__": "False", 
        "bias_bits": "8", 
        "bits": "8", 
        "init_shift": "4", 
        "quantization_type": "data"
      }, 
      "inputs": [[163, 0, 0], [164, 0, 1]]
    }, 
    {
      "op": "null", 
      "name": "vargnetstage_2_unit_2_sep2_data_conv2d_depthwise_weight", 
      "attr": {"__predict__": "False"}, 
      "inputs": []
    }, 
    {
      "op": "null", 
      "name": "vargnetstage_2_unit_2_sep2_data_conv2d_depthwise_wshift_shift", 
      "attr": {
        "__logging__": "True", 
        "__predict__": "False", 
        "bias_bits": "8", 
        "bits": "8", 
        "init_shift": "7", 
        "quantization_type": "weight", 
        "use_aux_shift": "True", 
        "vector_quanti": "True"
      }, 
      "inputs": []
    }, 
    {
      "op": "QuantizationSte", 
      "name": "vargnetstage_2_unit_2_sep2_data_conv2d_depthwise_wshift", 
      "attr": {
        "__logging__": "True", 
        "__predict__": "False", 
        "bias_bits": "8", 
        "bits": "8", 
        "init_shift": "7", 
        "quantization_type": "weight", 
        "use_aux_shift": "True", 
        "vector_quanti": "True"
      }, 
      "inputs": [[166, 0, 0], [167, 0, 1]]
    }, 
    {
      "op": "null", 
      "name": "vargnetstage_2_unit_2_sep2_data_conv2d_depthwise_bias", 
      "attr": {"__predict__": "False"}, 
      "inputs": []
    }, 
    {
      "op": "null", 
      "name": "vargnetstage_2_unit_2_sep2_data_conv2d_depthwise_bshift_shift", 
      "attr": {
        "__logging__": "True", 
        "__predict__": "False", 
        "bias_bits": "8", 
        "bits": "8", 
        "init_shift": "7", 
        "quantization_type": "bias", 
        "use_aux_shift": "True", 
        "vector_quanti": "True"
      }, 
      "inputs": []
    }, 
    {
      "op": "QuantizationSte", 
      "name": "vargnetstage_2_unit_2_sep2_data_conv2d_depthwise_bshift", 
      "attr": {
        "__logging__": "True", 
        "__predict__": "False", 
        "bias_bits": "8", 
        "bits": "8", 
        "init_shift": "7", 
        "quantization_type": "bias", 
        "use_aux_shift": "True", 
        "vector_quanti": "True"
      }, 
      "inputs": [[169, 0, 0], [170, 0, 1]]
    }, 
    {
      "op": "Convolution", 
      "name": "vargnetstage_2_unit_2_sep2_data_conv2d_depthwise", 
      "attr": {
        "__predict__": "False", 
        "__wd_mult__": "1", 
        "dilate": "(1, 1)", 
        "kernel": "(3, 3)", 
        "no_bias": "False", 
        "num_filter": "160", 
        "num_group": "10", 
        "pad": "(1, 1)", 
        "stride": "(1, 1)", 
        "workspace": "512"
      }, 
      "inputs": [[165, 0, 0], [168, 0, 0], [171, 0, 0]]
    }, 
    {
      "op": "null", 
      "name": "vargnetstage_2_unit_2_sep2_data_conv2d_depthwise_quantidata_shift", 
      "attr": {
        "__force_mirroring__": "True", 
        "__logging__": "True", 
        "__predict__": "False", 
        "bias_bits": "8", 
        "bits": "8", 
        "init_shift": "4", 
        "quantization_type": "data"
      }, 
      "inputs": []
    }, 
    {
      "op": "QuantizationSte", 
      "name": "vargnetstage_2_unit_2_sep2_data_conv2d_depthwise_quantidata", 
      "attr": {
        "__force_mirroring__": "True", 
        "__logging__": "True", 
        "__predict__": "False", 
        "bias_bits": "8", 
        "bits": "8", 
        "init_shift": "4", 
        "quantization_type": "data"
      }, 
      "inputs": [[172, 0, 0], [173, 0, 1]]
    }, 
    {
      "op": "null", 
      "name": "vargnetstage_2_unit_2_sep2_data_conv2d_pointwise_weight", 
      "attr": {"__predict__": "False"}, 
      "inputs": []
    }, 
    {
      "op": "null", 
      "name": "vargnetstage_2_unit_2_sep2_data_conv2d_pointwise_wshift_shift", 
      "attr": {
        "__logging__": "True", 
        "__predict__": "False", 
        "bias_bits": "8", 
        "bits": "8", 
        "init_shift": "7", 
        "quantization_type": "weight", 
        "use_aux_shift": "True", 
        "vector_quanti": "True"
      }, 
      "inputs": []
    }, 
    {
      "op": "QuantizationSte", 
      "name": "vargnetstage_2_unit_2_sep2_data_conv2d_pointwise_wshift", 
      "attr": {
        "__logging__": "True", 
        "__predict__": "False", 
        "bias_bits": "8", 
        "bits": "8", 
        "init_shift": "7", 
        "quantization_type": "weight", 
        "use_aux_shift": "True", 
        "vector_quanti": "True"
      }, 
      "inputs": [[175, 0, 0], [176, 0, 1]]
    }, 
    {
      "op": "null", 
      "name": "vargnetstage_2_unit_2_sep2_data_conv2d_pointwise_bias", 
      "attr": {"__predict__": "False"}, 
      "inputs": []
    }, 
    {
      "op": "null", 
      "name": "vargnetstage_2_unit_2_sep2_data_conv2d_pointwise_bshift_shift", 
      "attr": {
        "__logging__": "True", 
        "__predict__": "False", 
        "bias_bits": "8", 
        "bits": "8", 
        "init_shift": "7", 
        "quantization_type": "bias", 
        "use_aux_shift": "True", 
        "vector_quanti": "True"
      }, 
      "inputs": []
    }, 
    {
      "op": "QuantizationSte", 
      "name": "vargnetstage_2_unit_2_sep2_data_conv2d_pointwise_bshift", 
      "attr": {
        "__logging__": "True", 
        "__predict__": "False", 
        "bias_bits": "8", 
        "bits": "8", 
        "init_shift": "7", 
        "quantization_type": "bias", 
        "use_aux_shift": "True", 
        "vector_quanti": "True"
      }, 
      "inputs": [[178, 0, 0], [179, 0, 1]]
    }, 
    {
      "op": "Convolution", 
      "name": "vargnetstage_2_unit_2_sep2_data_conv2d_pointwise", 
      "attr": {
        "__predict__": "False", 
        "kernel": "(1, 1)", 
        "no_bias": "False", 
        "num_filter": "80", 
        "num_group": "1", 
        "pad": "(0, 0)", 
        "stride": "(1, 1)", 
        "workspace": "512"
      }, 
      "inputs": [[174, 0, 0], [177, 0, 0], [180, 0, 0]]
    }, 
    {
      "op": "elemwise_add", 
      "name": "_plus3", 
      "attr": {
        "__force_mirroring__": "True", 
        "__predict__": "False"
      }, 
      "inputs": [[181, 0, 0], [145, 0, 0]]
    }, 
    {
      "op": "null", 
      "name": "vargnetstage_2_unit_2_sep2_data_conv2d_pointwise_quantidata_shift", 
      "attr": {
        "__force_mirroring__": "True", 
        "__logging__": "True", 
        "__predict__": "False", 
        "bias_bits": "8", 
        "bits": "8", 
        "init_shift": "4", 
        "quantization_type": "data"
      }, 
      "inputs": []
    }, 
    {
      "op": "QuantizationSte", 
      "name": "vargnetstage_2_unit_2_sep2_data_conv2d_pointwise_quantidata", 
      "attr": {
        "__force_mirroring__": "True", 
        "__logging__": "True", 
        "__predict__": "False", 
        "bias_bits": "8", 
        "bits": "8", 
        "init_shift": "4", 
        "quantization_type": "data"
      }, 
      "inputs": [[182, 0, 0], [183, 0, 1]]
    }, 
    {
      "op": "null", 
      "name": "vargnetstage_2_unit_3_sep1_data_conv2d_depthwise_weight", 
      "attr": {"__predict__": "False"}, 
      "inputs": []
    }, 
    {
      "op": "null", 
      "name": "vargnetstage_2_unit_3_sep1_data_conv2d_depthwise_wshift_shift", 
      "attr": {
        "__logging__": "True", 
        "__predict__": "False", 
        "bias_bits": "8", 
        "bits": "8", 
        "init_shift": "7", 
        "quantization_type": "weight", 
        "use_aux_shift": "True", 
        "vector_quanti": "True"
      }, 
      "inputs": []
    }, 
    {
      "op": "QuantizationSte", 
      "name": "vargnetstage_2_unit_3_sep1_data_conv2d_depthwise_wshift", 
      "attr": {
        "__logging__": "True", 
        "__predict__": "False", 
        "bias_bits": "8", 
        "bits": "8", 
        "init_shift": "7", 
        "quantization_type": "weight", 
        "use_aux_shift": "True", 
        "vector_quanti": "True"
      }, 
      "inputs": [[185, 0, 0], [186, 0, 1]]
    }, 
    {
      "op": "null", 
      "name": "vargnetstage_2_unit_3_sep1_data_conv2d_depthwise_bias", 
      "attr": {"__predict__": "False"}, 
      "inputs": []
    }, 
    {
      "op": "null", 
      "name": "vargnetstage_2_unit_3_sep1_data_conv2d_depthwise_bshift_shift", 
      "attr": {
        "__logging__": "True", 
        "__predict__": "False", 
        "bias_bits": "8", 
        "bits": "8", 
        "init_shift": "7", 
        "quantization_type": "bias", 
        "use_aux_shift": "True", 
        "vector_quanti": "True"
      }, 
      "inputs": []
    }, 
    {
      "op": "QuantizationSte", 
      "name": "vargnetstage_2_unit_3_sep1_data_conv2d_depthwise_bshift", 
      "attr": {
        "__logging__": "True", 
        "__predict__": "False", 
        "bias_bits": "8", 
        "bits": "8", 
        "init_shift": "7", 
        "quantization_type": "bias", 
        "use_aux_shift": "True", 
        "vector_quanti": "True"
      }, 
      "inputs": [[188, 0, 0], [189, 0, 1]]
    }, 
    {
      "op": "Convolution", 
      "name": "vargnetstage_2_unit_3_sep1_data_conv2d_depthwise", 
      "attr": {
        "__predict__": "False", 
        "__wd_mult__": "1", 
        "dilate": "(1, 1)", 
        "kernel": "(3, 3)", 
        "no_bias": "False", 
        "num_filter": "160", 
        "num_group": "10", 
        "pad": "(1, 1)", 
        "stride": "(1, 1)", 
        "workspace": "512"
      }, 
      "inputs": [[184, 0, 0], [187, 0, 0], [190, 0, 0]]
    }, 
    {
      "op": "QuantiActivation", 
      "name": "quantiactivation7", 
      "attr": {
        "__force_mirroring__": "True", 
        "__predict__": "False", 
        "act_type": "relu"
      }, 
      "inputs": [[191, 0, 0]]
    }, 
    {
      "op": "null", 
      "name": "vargnetstage_2_unit_3_sep1_data_conv2d_depthwise_quantidata_shift", 
      "attr": {
        "__force_mirroring__": "True", 
        "__logging__": "True", 
        "__predict__": "False", 
        "bias_bits": "8", 
        "bits": "8", 
        "init_shift": "4", 
        "quantization_type": "data"
      }, 
      "inputs": []
    }, 
    {
      "op": "QuantizationSte", 
      "name": "vargnetstage_2_unit_3_sep1_data_conv2d_depthwise_quantidata", 
      "attr": {
        "__force_mirroring__": "True", 
        "__logging__": "True", 
        "__predict__": "False", 
        "bias_bits": "8", 
        "bits": "8", 
        "init_shift": "4", 
        "quantization_type": "data"
      }, 
      "inputs": [[192, 0, 0], [193, 0, 1]]
    }, 
    {
      "op": "null", 
      "name": "vargnetstage_2_unit_3_sep1_data_conv2d_pointwise_weight", 
      "attr": {"__predict__": "False"}, 
      "inputs": []
    }, 
    {
      "op": "null", 
      "name": "vargnetstage_2_unit_3_sep1_data_conv2d_pointwise_wshift_shift", 
      "attr": {
        "__logging__": "True", 
        "__predict__": "False", 
        "bias_bits": "8", 
        "bits": "8", 
        "init_shift": "7", 
        "quantization_type": "weight", 
        "use_aux_shift": "True", 
        "vector_quanti": "True"
      }, 
      "inputs": []
    }, 
    {
      "op": "QuantizationSte", 
      "name": "vargnetstage_2_unit_3_sep1_data_conv2d_pointwise_wshift", 
      "attr": {
        "__logging__": "True", 
        "__predict__": "False", 
        "bias_bits": "8", 
        "bits": "8", 
        "init_shift": "7", 
        "quantization_type": "weight", 
        "use_aux_shift": "True", 
        "vector_quanti": "True"
      }, 
      "inputs": [[195, 0, 0], [196, 0, 1]]
    }, 
    {
      "op": "null", 
      "name": "vargnetstage_2_unit_3_sep1_data_conv2d_pointwise_bias", 
      "attr": {"__predict__": "False"}, 
      "inputs": []
    }, 
    {
      "op": "null", 
      "name": "vargnetstage_2_unit_3_sep1_data_conv2d_pointwise_bshift_shift", 
      "attr": {
        "__logging__": "True", 
        "__predict__": "False", 
        "bias_bits": "8", 
        "bits": "8", 
        "init_shift": "7", 
        "quantization_type": "bias", 
        "use_aux_shift": "True", 
        "vector_quanti": "True"
      }, 
      "inputs": []
    }, 
    {
      "op": "QuantizationSte", 
      "name": "vargnetstage_2_unit_3_sep1_data_conv2d_pointwise_bshift", 
      "attr": {
        "__logging__": "True", 
        "__predict__": "False", 
        "bias_bits": "8", 
        "bits": "8", 
        "init_shift": "7", 
        "quantization_type": "bias", 
        "use_aux_shift": "True", 
        "vector_quanti": "True"
      }, 
      "inputs": [[198, 0, 0], [199, 0, 1]]
    }, 
    {
      "op": "Convolution", 
      "name": "vargnetstage_2_unit_3_sep1_data_conv2d_pointwise", 
      "attr": {
        "__predict__": "False", 
        "kernel": "(1, 1)", 
        "no_bias": "False", 
        "num_filter": "80", 
        "num_group": "1", 
        "pad": "(0, 0)", 
        "stride": "(1, 1)", 
        "workspace": "512"
      }, 
      "inputs": [[194, 0, 0], [197, 0, 0], [200, 0, 0]]
    }, 
    {
      "op": "QuantiActivation", 
      "name": "quantiactivation8", 
      "attr": {
        "__force_mirroring__": "True", 
        "__predict__": "False", 
        "act_type": "relu"
      }, 
      "inputs": [[201, 0, 0]]
    }, 
    {
      "op": "null", 
      "name": "vargnetstage_2_unit_3_sep1_data_conv2d_pointwise_quantidata_shift", 
      "attr": {
        "__force_mirroring__": "True", 
        "__logging__": "True", 
        "__predict__": "False", 
        "bias_bits": "8", 
        "bits": "8", 
        "init_shift": "4", 
        "quantization_type": "data"
      }, 
      "inputs": []
    }, 
    {
      "op": "QuantizationSte", 
      "name": "vargnetstage_2_unit_3_sep1_data_conv2d_pointwise_quantidata", 
      "attr": {
        "__force_mirroring__": "True", 
        "__logging__": "True", 
        "__predict__": "False", 
        "bias_bits": "8", 
        "bits": "8", 
        "init_shift": "4", 
        "quantization_type": "data"
      }, 
      "inputs": [[202, 0, 0], [203, 0, 1]]
    }, 
    {
      "op": "null", 
      "name": "vargnetstage_2_unit_3_sep2_data_conv2d_depthwise_weight", 
      "attr": {"__predict__": "False"}, 
      "inputs": []
    }, 
    {
      "op": "null", 
      "name": "vargnetstage_2_unit_3_sep2_data_conv2d_depthwise_wshift_shift", 
      "attr": {
        "__logging__": "True", 
        "__predict__": "False", 
        "bias_bits": "8", 
        "bits": "8", 
        "init_shift": "7", 
        "quantization_type": "weight", 
        "use_aux_shift": "True", 
        "vector_quanti": "True"
      }, 
      "inputs": []
    }, 
    {
      "op": "QuantizationSte", 
      "name": "vargnetstage_2_unit_3_sep2_data_conv2d_depthwise_wshift", 
      "attr": {
        "__logging__": "True", 
        "__predict__": "False", 
        "bias_bits": "8", 
        "bits": "8", 
        "init_shift": "7", 
        "quantization_type": "weight", 
        "use_aux_shift": "True", 
        "vector_quanti": "True"
      }, 
      "inputs": [[205, 0, 0], [206, 0, 1]]
    }, 
    {
      "op": "null", 
      "name": "vargnetstage_2_unit_3_sep2_data_conv2d_depthwise_bias", 
      "attr": {"__predict__": "False"}, 
      "inputs": []
    }, 
    {
      "op": "null", 
      "name": "vargnetstage_2_unit_3_sep2_data_conv2d_depthwise_bshift_shift", 
      "attr": {
        "__logging__": "True", 
        "__predict__": "False", 
        "bias_bits": "8", 
        "bits": "8", 
        "init_shift": "7", 
        "quantization_type": "bias", 
        "use_aux_shift": "True", 
        "vector_quanti": "True"
      }, 
      "inputs": []
    }, 
    {
      "op": "QuantizationSte", 
      "name": "vargnetstage_2_unit_3_sep2_data_conv2d_depthwise_bshift", 
      "attr": {
        "__logging__": "True", 
        "__predict__": "False", 
        "bias_bits": "8", 
        "bits": "8", 
        "init_shift": "7", 
        "quantization_type": "bias", 
        "use_aux_shift": "True", 
        "vector_quanti": "True"
      }, 
      "inputs": [[208, 0, 0], [209, 0, 1]]
    }, 
    {
      "op": "Convolution", 
      "name": "vargnetstage_2_unit_3_sep2_data_conv2d_depthwise", 
      "attr": {
        "__predict__": "False", 
        "__wd_mult__": "1", 
        "dilate": "(1, 1)", 
        "kernel": "(3, 3)", 
        "no_bias": "False", 
        "num_filter": "160", 
        "num_group": "10", 
        "pad": "(1, 1)", 
        "stride": "(1, 1)", 
        "workspace": "512"
      }, 
      "inputs": [[204, 0, 0], [207, 0, 0], [210, 0, 0]]
    }, 
    {
      "op": "null", 
      "name": "vargnetstage_2_unit_3_sep2_data_conv2d_depthwise_quantidata_shift", 
      "attr": {
        "__force_mirroring__": "True", 
        "__logging__": "True", 
        "__predict__": "False", 
        "bias_bits": "8", 
        "bits": "8", 
        "init_shift": "4", 
        "quantization_type": "data"
      }, 
      "inputs": []
    }, 
    {
      "op": "QuantizationSte", 
      "name": "vargnetstage_2_unit_3_sep2_data_conv2d_depthwise_quantidata", 
      "attr": {
        "__force_mirroring__": "True", 
        "__logging__": "True", 
        "__predict__": "False", 
        "bias_bits": "8", 
        "bits": "8", 
        "init_shift": "4", 
        "quantization_type": "data"
      }, 
      "inputs": [[211, 0, 0], [212, 0, 1]]
    }, 
    {
      "op": "null", 
      "name": "vargnetstage_2_unit_3_sep2_data_conv2d_pointwise_weight", 
      "attr": {"__predict__": "False"}, 
      "inputs": []
    }, 
    {
      "op": "null", 
      "name": "vargnetstage_2_unit_3_sep2_data_conv2d_pointwise_wshift_shift", 
      "attr": {
        "__logging__": "True", 
        "__predict__": "False", 
        "bias_bits": "8", 
        "bits": "8", 
        "init_shift": "7", 
        "quantization_type": "weight", 
        "use_aux_shift": "True", 
        "vector_quanti": "True"
      }, 
      "inputs": []
    }, 
    {
      "op": "QuantizationSte", 
      "name": "vargnetstage_2_unit_3_sep2_data_conv2d_pointwise_wshift", 
      "attr": {
        "__logging__": "True", 
        "__predict__": "False", 
        "bias_bits": "8", 
        "bits": "8", 
        "init_shift": "7", 
        "quantization_type": "weight", 
        "use_aux_shift": "True", 
        "vector_quanti": "True"
      }, 
      "inputs": [[214, 0, 0], [215, 0, 1]]
    }, 
    {
      "op": "null", 
      "name": "vargnetstage_2_unit_3_sep2_data_conv2d_pointwise_bias", 
      "attr": {"__predict__": "False"}, 
      "inputs": []
    }, 
    {
      "op": "null", 
      "name": "vargnetstage_2_unit_3_sep2_data_conv2d_pointwise_bshift_shift", 
      "attr": {
        "__logging__": "True", 
        "__predict__": "False", 
        "bias_bits": "8", 
        "bits": "8", 
        "init_shift": "7", 
        "quantization_type": "bias", 
        "use_aux_shift": "True", 
        "vector_quanti": "True"
      }, 
      "inputs": []
    }, 
    {
      "op": "QuantizationSte", 
      "name": "vargnetstage_2_unit_3_sep2_data_conv2d_pointwise_bshift", 
      "attr": {
        "__logging__": "True", 
        "__predict__": "False", 
        "bias_bits": "8", 
        "bits": "8", 
        "init_shift": "7", 
        "quantization_type": "bias", 
        "use_aux_shift": "True", 
        "vector_quanti": "True"
      }, 
      "inputs": [[217, 0, 0], [218, 0, 1]]
    }, 
    {
      "op": "Convolution", 
      "name": "vargnetstage_2_unit_3_sep2_data_conv2d_pointwise", 
      "attr": {
        "__predict__": "False", 
        "kernel": "(1, 1)", 
        "no_bias": "False", 
        "num_filter": "80", 
        "num_group": "1", 
        "pad": "(0, 0)", 
        "stride": "(1, 1)", 
        "workspace": "512"
      }, 
      "inputs": [[213, 0, 0], [216, 0, 0], [219, 0, 0]]
    }, 
    {
      "op": "elemwise_add", 
      "name": "_plus4", 
      "attr": {
        "__force_mirroring__": "True", 
        "__predict__": "False"
      }, 
      "inputs": [[220, 0, 0], [184, 0, 0]]
    }, 
    {
      "op": "null", 
      "name": "vargnetstage_2_unit_3_sep2_data_conv2d_pointwise_quantidata_shift", 
      "attr": {
        "__force_mirroring__": "True", 
        "__logging__": "True", 
        "__predict__": "False", 
        "bias_bits": "8", 
        "bits": "8", 
        "init_shift": "4", 
        "quantization_type": "data"
      }, 
      "inputs": []
    }, 
    {
      "op": "QuantizationSte", 
      "name": "vargnetstage_2_unit_3_sep2_data_conv2d_pointwise_quantidata", 
      "attr": {
        "__force_mirroring__": "True", 
        "__logging__": "True", 
        "__predict__": "False", 
        "bias_bits": "8", 
        "bits": "8", 
        "init_shift": "4", 
        "quantization_type": "data"
      }, 
      "inputs": [[221, 0, 0], [222, 0, 1]]
    }, 
    {
      "op": "null", 
      "name": "vargnetstage_3_unit_1_sep2_data_branch_conv2d_depthwise_weight", 
      "attr": {"__predict__": "False"}, 
      "inputs": []
    }, 
    {
      "op": "null", 
      "name": "vargnetstage_3_unit_1_sep2_data_branch_conv2d_depthwise_wshift_shift", 
      "attr": {
        "__logging__": "True", 
        "__predict__": "False", 
        "bias_bits": "8", 
        "bits": "8", 
        "init_shift": "7", 
        "quantization_type": "weight", 
        "use_aux_shift": "True", 
        "vector_quanti": "True"
      }, 
      "inputs": []
    }, 
    {
      "op": "QuantizationSte", 
      "name": "vargnetstage_3_unit_1_sep2_data_branch_conv2d_depthwise_wshift", 
      "attr": {
        "__logging__": "True", 
        "__predict__": "False", 
        "bias_bits": "8", 
        "bits": "8", 
        "init_shift": "7", 
        "quantization_type": "weight", 
        "use_aux_shift": "True", 
        "vector_quanti": "True"
      }, 
      "inputs": [[224, 0, 0], [225, 0, 1]]
    }, 
    {
      "op": "null", 
      "name": "vargnetstage_3_unit_1_sep2_data_branch_conv2d_depthwise_bias", 
      "attr": {"__predict__": "False"}, 
      "inputs": []
    }, 
    {
      "op": "null", 
      "name": "vargnetstage_3_unit_1_sep2_data_branch_conv2d_depthwise_bshift_shift", 
      "attr": {
        "__logging__": "True", 
        "__predict__": "False", 
        "bias_bits": "8", 
        "bits": "8", 
        "init_shift": "7", 
        "quantization_type": "bias", 
        "use_aux_shift": "True", 
        "vector_quanti": "True"
      }, 
      "inputs": []
    }, 
    {
      "op": "QuantizationSte", 
      "name": "vargnetstage_3_unit_1_sep2_data_branch_conv2d_depthwise_bshift", 
      "attr": {
        "__logging__": "True", 
        "__predict__": "False", 
        "bias_bits": "8", 
        "bits": "8", 
        "init_shift": "7", 
        "quantization_type": "bias", 
        "use_aux_shift": "True", 
        "vector_quanti": "True"
      }, 
      "inputs": [[227, 0, 0], [228, 0, 1]]
    }, 
    {
      "op": "Convolution", 
      "name": "vargnetstage_3_unit_1_sep2_data_branch_conv2d_depthwise", 
      "attr": {
        "__predict__": "False", 
        "__wd_mult__": "1", 
        "dilate": "(1, 1)", 
        "kernel": "(3, 3)", 
        "no_bias": "False", 
        "num_filter": "160", 
        "num_group": "10", 
        "pad": "(1, 1)", 
        "stride": "(2, 2)", 
        "workspace": "512"
      }, 
      "inputs": [[223, 0, 0], [226, 0, 0], [229, 0, 0]]
    }, 
    {
      "op": "QuantiActivation", 
      "name": "quantiactivation9", 
      "attr": {
        "__force_mirroring__": "True", 
        "__predict__": "False", 
        "act_type": "relu"
      }, 
      "inputs": [[230, 0, 0]]
    }, 
    {
      "op": "null", 
      "name": "vargnetstage_3_unit_1_sep2_data_branch_conv2d_depthwise_quantidata_shift", 
      "attr": {
        "__force_mirroring__": "True", 
        "__logging__": "True", 
        "__predict__": "False", 
        "bias_bits": "8", 
        "bits": "8", 
        "init_shift": "4", 
        "quantization_type": "data"
      }, 
      "inputs": []
    }, 
    {
      "op": "QuantizationSte", 
      "name": "vargnetstage_3_unit_1_sep2_data_branch_conv2d_depthwise_quantidata", 
      "attr": {
        "__force_mirroring__": "True", 
        "__logging__": "True", 
        "__predict__": "False", 
        "bias_bits": "8", 
        "bits": "8", 
        "init_shift": "4", 
        "quantization_type": "data"
      }, 
      "inputs": [[231, 0, 0], [232, 0, 1]]
    }, 
    {
      "op": "null", 
      "name": "vargnetstage_3_unit_1_sep2_data_branch_conv2d_pointwise_weight", 
      "attr": {"__predict__": "False"}, 
      "inputs": []
    }, 
    {
      "op": "null", 
      "name": "vargnetstage_3_unit_1_sep2_data_branch_conv2d_pointwise_wshift_shift", 
      "attr": {
        "__logging__": "True", 
        "__predict__": "False", 
        "bias_bits": "8", 
        "bits": "8", 
        "init_shift": "7", 
        "quantization_type": "weight", 
        "use_aux_shift": "True", 
        "vector_quanti": "True"
      }, 
      "inputs": []
    }, 
    {
      "op": "QuantizationSte", 
      "name": "vargnetstage_3_unit_1_sep2_data_branch_conv2d_pointwise_wshift", 
      "attr": {
        "__logging__": "True", 
        "__predict__": "False", 
        "bias_bits": "8", 
        "bits": "8", 
        "init_shift": "7", 
        "quantization_type": "weight", 
        "use_aux_shift": "True", 
        "vector_quanti": "True"
      }, 
      "inputs": [[234, 0, 0], [235, 0, 1]]
    }, 
    {
      "op": "null", 
      "name": "vargnetstage_3_unit_1_sep2_data_branch_conv2d_pointwise_bias", 
      "attr": {"__predict__": "False"}, 
      "inputs": []
    }, 
    {
      "op": "null", 
      "name": "vargnetstage_3_unit_1_sep2_data_branch_conv2d_pointwise_bshift_shift", 
      "attr": {
        "__logging__": "True", 
        "__predict__": "False", 
        "bias_bits": "8", 
        "bits": "8", 
        "init_shift": "7", 
        "quantization_type": "bias", 
        "use_aux_shift": "True", 
        "vector_quanti": "True"
      }, 
      "inputs": []
    }, 
    {
      "op": "QuantizationSte", 
      "name": "vargnetstage_3_unit_1_sep2_data_branch_conv2d_pointwise_bshift", 
      "attr": {
        "__logging__": "True", 
        "__predict__": "False", 
        "bias_bits": "8", 
        "bits": "8", 
        "init_shift": "7", 
        "quantization_type": "bias", 
        "use_aux_shift": "True", 
        "vector_quanti": "True"
      }, 
      "inputs": [[237, 0, 0], [238, 0, 1]]
    }, 
    {
      "op": "Convolution", 
      "name": "vargnetstage_3_unit_1_sep2_data_branch_conv2d_pointwise", 
      "attr": {
        "__predict__": "False", 
        "kernel": "(1, 1)", 
        "no_bias": "False", 
        "num_filter": "160", 
        "num_group": "1", 
        "pad": "(0, 0)", 
        "stride": "(1, 1)", 
        "workspace": "512"
      }, 
      "inputs": [[233, 0, 0], [236, 0, 0], [239, 0, 0]]
    }, 
    {
      "op": "null", 
      "name": "vargnetstage_3_unit_1_sep1_data_branch_conv2d_depthwise_weight", 
      "attr": {"__predict__": "False"}, 
      "inputs": []
    }, 
    {
      "op": "null", 
      "name": "vargnetstage_3_unit_1_sep1_data_branch_conv2d_depthwise_wshift_shift", 
      "attr": {
        "__logging__": "True", 
        "__predict__": "False", 
        "bias_bits": "8", 
        "bits": "8", 
        "init_shift": "7", 
        "quantization_type": "weight", 
        "use_aux_shift": "True", 
        "vector_quanti": "True"
      }, 
      "inputs": []
    }, 
    {
      "op": "QuantizationSte", 
      "name": "vargnetstage_3_unit_1_sep1_data_branch_conv2d_depthwise_wshift", 
      "attr": {
        "__logging__": "True", 
        "__predict__": "False", 
        "bias_bits": "8", 
        "bits": "8", 
        "init_shift": "7", 
        "quantization_type": "weight", 
        "use_aux_shift": "True", 
        "vector_quanti": "True"
      }, 
      "inputs": [[241, 0, 0], [242, 0, 1]]
    }, 
    {
      "op": "null", 
      "name": "vargnetstage_3_unit_1_sep1_data_branch_conv2d_depthwise_bias", 
      "attr": {"__predict__": "False"}, 
      "inputs": []
    }, 
    {
      "op": "null", 
      "name": "vargnetstage_3_unit_1_sep1_data_branch_conv2d_depthwise_bshift_shift", 
      "attr": {
        "__logging__": "True", 
        "__predict__": "False", 
        "bias_bits": "8", 
        "bits": "8", 
        "init_shift": "7", 
        "quantization_type": "bias", 
        "use_aux_shift": "True", 
        "vector_quanti": "True"
      }, 
      "inputs": []
    }, 
    {
      "op": "QuantizationSte", 
      "name": "vargnetstage_3_unit_1_sep1_data_branch_conv2d_depthwise_bshift", 
      "attr": {
        "__logging__": "True", 
        "__predict__": "False", 
        "bias_bits": "8", 
        "bits": "8", 
        "init_shift": "7", 
        "quantization_type": "bias", 
        "use_aux_shift": "True", 
        "vector_quanti": "True"
      }, 
      "inputs": [[244, 0, 0], [245, 0, 1]]
    }, 
    {
      "op": "Convolution", 
      "name": "vargnetstage_3_unit_1_sep1_data_branch_conv2d_depthwise", 
      "attr": {
        "__predict__": "False", 
        "__wd_mult__": "1", 
        "dilate": "(1, 1)", 
        "kernel": "(3, 3)", 
        "no_bias": "False", 
        "num_filter": "160", 
        "num_group": "10", 
        "pad": "(1, 1)", 
        "stride": "(2, 2)", 
        "workspace": "512"
      }, 
      "inputs": [[223, 0, 0], [243, 0, 0], [246, 0, 0]]
    }, 
    {
      "op": "null", 
      "name": "vargnetstage_3_unit_1_sep1_data_branch_conv2d_depthwise_quantidata_shift", 
      "attr": {
        "__force_mirroring__": "True", 
        "__logging__": "True", 
        "__predict__": "False", 
        "bias_bits": "8", 
        "bits": "8", 
        "init_shift": "4", 
        "quantization_type": "data"
      }, 
      "inputs": []
    }, 
    {
      "op": "QuantizationSte", 
      "name": "vargnetstage_3_unit_1_sep1_data_branch_conv2d_depthwise_quantidata", 
      "attr": {
        "__force_mirroring__": "True", 
        "__logging__": "True", 
        "__predict__": "False", 
        "bias_bits": "8", 
        "bits": "8", 
        "init_shift": "4", 
        "quantization_type": "data"
      }, 
      "inputs": [[247, 0, 0], [248, 0, 1]]
    }, 
    {
      "op": "null", 
      "name": "vargnetstage_3_unit_1_sep1_data_branch_conv2d_pointwise_weight", 
      "attr": {"__predict__": "False"}, 
      "inputs": []
    }, 
    {
      "op": "null", 
      "name": "vargnetstage_3_unit_1_sep1_data_branch_conv2d_pointwise_wshift_shift", 
      "attr": {
        "__logging__": "True", 
        "__predict__": "False", 
        "bias_bits": "8", 
        "bits": "8", 
        "init_shift": "7", 
        "quantization_type": "weight", 
        "use_aux_shift": "True", 
        "vector_quanti": "True"
      }, 
      "inputs": []
    }, 
    {
      "op": "QuantizationSte", 
      "name": "vargnetstage_3_unit_1_sep1_data_branch_conv2d_pointwise_wshift", 
      "attr": {
        "__logging__": "True", 
        "__predict__": "False", 
        "bias_bits": "8", 
        "bits": "8", 
        "init_shift": "7", 
        "quantization_type": "weight", 
        "use_aux_shift": "True", 
        "vector_quanti": "True"
      }, 
      "inputs": [[250, 0, 0], [251, 0, 1]]
    }, 
    {
      "op": "null", 
      "name": "vargnetstage_3_unit_1_sep1_data_branch_conv2d_pointwise_bias", 
      "attr": {"__predict__": "False"}, 
      "inputs": []
    }, 
    {
      "op": "null", 
      "name": "vargnetstage_3_unit_1_sep1_data_branch_conv2d_pointwise_bshift_shift", 
      "attr": {
        "__logging__": "True", 
        "__predict__": "False", 
        "bias_bits": "8", 
        "bits": "8", 
        "init_shift": "7", 
        "quantization_type": "bias", 
        "use_aux_shift": "True", 
        "vector_quanti": "True"
      }, 
      "inputs": []
    }, 
    {
      "op": "QuantizationSte", 
      "name": "vargnetstage_3_unit_1_sep1_data_branch_conv2d_pointwise_bshift", 
      "attr": {
        "__logging__": "True", 
        "__predict__": "False", 
        "bias_bits": "8", 
        "bits": "8", 
        "init_shift": "7", 
        "quantization_type": "bias", 
        "use_aux_shift": "True", 
        "vector_quanti": "True"
      }, 
      "inputs": [[253, 0, 0], [254, 0, 1]]
    }, 
    {
      "op": "Convolution", 
      "name": "vargnetstage_3_unit_1_sep1_data_branch_conv2d_pointwise", 
      "attr": {
        "__predict__": "False", 
        "kernel": "(1, 1)", 
        "no_bias": "False", 
        "num_filter": "160", 
        "num_group": "1", 
        "pad": "(0, 0)", 
        "stride": "(1, 1)", 
        "workspace": "512"
      }, 
      "inputs": [[249, 0, 0], [252, 0, 0], [255, 0, 0]]
    }, 
    {
      "op": "null", 
      "name": "vargnetstage_3_unit_1_sep1_data_branch_conv2d_pointwise_quantidata_shift", 
      "attr": {
        "__force_mirroring__": "True", 
        "__logging__": "True", 
        "__predict__": "False", 
        "bias_bits": "8", 
        "bits": "8", 
        "init_shift": "4", 
        "quantization_type": "data"
      }, 
      "inputs": []
    }, 
    {
      "op": "QuantizationSte", 
      "name": "vargnetstage_3_unit_1_sep1_data_branch_conv2d_pointwise_quantidata", 
      "attr": {
        "__force_mirroring__": "True", 
        "__logging__": "True", 
        "__predict__": "False", 
        "bias_bits": "8", 
        "bits": "8", 
        "init_shift": "4", 
        "quantization_type": "data"
      }, 
      "inputs": [[256, 0, 0], [257, 0, 1]]
    }, 
    {
      "op": "elemwise_add", 
      "name": "_plus5", 
      "attr": {
        "__force_mirroring__": "True", 
        "__predict__": "False"
      }, 
      "inputs": [[240, 0, 0], [258, 0, 0]]
    }, 
    {
      "op": "QuantiActivation", 
      "name": "quantiactivation10", 
      "attr": {
        "__force_mirroring__": "True", 
        "__predict__": "False", 
        "act_type": "relu"
      }, 
      "inputs": [[259, 0, 0]]
    }, 
    {
      "op": "null", 
      "name": "vargnetstage_3_unit_1_sep2_data_branch_conv2d_pointwise_quantidata_shift", 
      "attr": {
        "__force_mirroring__": "True", 
        "__logging__": "True", 
        "__predict__": "False", 
        "bias_bits": "8", 
        "bits": "8", 
        "init_shift": "4", 
        "quantization_type": "data"
      }, 
      "inputs": []
    }, 
    {
      "op": "QuantizationSte", 
      "name": "vargnetstage_3_unit_1_sep2_data_branch_conv2d_pointwise_quantidata", 
      "attr": {
        "__force_mirroring__": "True", 
        "__logging__": "True", 
        "__predict__": "False", 
        "bias_bits": "8", 
        "bits": "8", 
        "init_shift": "4", 
        "quantization_type": "data"
      }, 
      "inputs": [[260, 0, 0], [261, 0, 1]]
    }, 
    {
      "op": "null", 
      "name": "vargnetstage_3_unit_1_sep2_data_conv2d_depthwise_weight", 
      "attr": {"__predict__": "False"}, 
      "inputs": []
    }, 
    {
      "op": "null", 
      "name": "vargnetstage_3_unit_1_sep2_data_conv2d_depthwise_wshift_shift", 
      "attr": {
        "__logging__": "True", 
        "__predict__": "False", 
        "bias_bits": "8", 
        "bits": "8", 
        "init_shift": "7", 
        "quantization_type": "weight", 
        "use_aux_shift": "True", 
        "vector_quanti": "True"
      }, 
      "inputs": []
    }, 
    {
      "op": "QuantizationSte", 
      "name": "vargnetstage_3_unit_1_sep2_data_conv2d_depthwise_wshift", 
      "attr": {
        "__logging__": "True", 
        "__predict__": "False", 
        "bias_bits": "8", 
        "bits": "8", 
        "init_shift": "7", 
        "quantization_type": "weight", 
        "use_aux_shift": "True", 
        "vector_quanti": "True"
      }, 
      "inputs": [[263, 0, 0], [264, 0, 1]]
    }, 
    {
      "op": "null", 
      "name": "vargnetstage_3_unit_1_sep2_data_conv2d_depthwise_bias", 
      "attr": {"__predict__": "False"}, 
      "inputs": []
    }, 
    {
      "op": "null", 
      "name": "vargnetstage_3_unit_1_sep2_data_conv2d_depthwise_bshift_shift", 
      "attr": {
        "__logging__": "True", 
        "__predict__": "False", 
        "bias_bits": "8", 
        "bits": "8", 
        "init_shift": "7", 
        "quantization_type": "bias", 
        "use_aux_shift": "True", 
        "vector_quanti": "True"
      }, 
      "inputs": []
    }, 
    {
      "op": "QuantizationSte", 
      "name": "vargnetstage_3_unit_1_sep2_data_conv2d_depthwise_bshift", 
      "attr": {
        "__logging__": "True", 
        "__predict__": "False", 
        "bias_bits": "8", 
        "bits": "8", 
        "init_shift": "7", 
        "quantization_type": "bias", 
        "use_aux_shift": "True", 
        "vector_quanti": "True"
      }, 
      "inputs": [[266, 0, 0], [267, 0, 1]]
    }, 
    {
      "op": "Convolution", 
      "name": "vargnetstage_3_unit_1_sep2_data_conv2d_depthwise", 
      "attr": {
        "__predict__": "False", 
        "__wd_mult__": "1", 
        "dilate": "(1, 1)", 
        "kernel": "(3, 3)", 
        "no_bias": "False", 
        "num_filter": "320", 
        "num_group": "20", 
        "pad": "(1, 1)", 
        "stride": "(1, 1)", 
        "workspace": "512"
      }, 
      "inputs": [[262, 0, 0], [265, 0, 0], [268, 0, 0]]
    }, 
    {
      "op": "null", 
      "name": "vargnetstage_3_unit_1_sep2_data_conv2d_depthwise_quantidata_shift", 
      "attr": {
        "__force_mirroring__": "True", 
        "__logging__": "True", 
        "__predict__": "False", 
        "bias_bits": "8", 
        "bits": "8", 
        "init_shift": "4", 
        "quantization_type": "data"
      }, 
      "inputs": []
    }, 
    {
      "op": "QuantizationSte", 
      "name": "vargnetstage_3_unit_1_sep2_data_conv2d_depthwise_quantidata", 
      "attr": {
        "__force_mirroring__": "True", 
        "__logging__": "True", 
        "__predict__": "False", 
        "bias_bits": "8", 
        "bits": "8", 
        "init_shift": "4", 
        "quantization_type": "data"
      }, 
      "inputs": [[269, 0, 0], [270, 0, 1]]
    }, 
    {
      "op": "null", 
      "name": "vargnetstage_3_unit_1_sep2_data_conv2d_pointwise_weight", 
      "attr": {"__predict__": "False"}, 
      "inputs": []
    }, 
    {
      "op": "null", 
      "name": "vargnetstage_3_unit_1_sep2_data_conv2d_pointwise_wshift_shift", 
      "attr": {
        "__logging__": "True", 
        "__predict__": "False", 
        "bias_bits": "8", 
        "bits": "8", 
        "init_shift": "7", 
        "quantization_type": "weight", 
        "use_aux_shift": "True", 
        "vector_quanti": "True"
      }, 
      "inputs": []
    }, 
    {
      "op": "QuantizationSte", 
      "name": "vargnetstage_3_unit_1_sep2_data_conv2d_pointwise_wshift", 
      "attr": {
        "__logging__": "True", 
        "__predict__": "False", 
        "bias_bits": "8", 
        "bits": "8", 
        "init_shift": "7", 
        "quantization_type": "weight", 
        "use_aux_shift": "True", 
        "vector_quanti": "True"
      }, 
      "inputs": [[272, 0, 0], [273, 0, 1]]
    }, 
    {
      "op": "null", 
      "name": "vargnetstage_3_unit_1_sep2_data_conv2d_pointwise_bias", 
      "attr": {"__predict__": "False"}, 
      "inputs": []
    }, 
    {
      "op": "null", 
      "name": "vargnetstage_3_unit_1_sep2_data_conv2d_pointwise_bshift_shift", 
      "attr": {
        "__logging__": "True", 
        "__predict__": "False", 
        "bias_bits": "8", 
        "bits": "8", 
        "init_shift": "7", 
        "quantization_type": "bias", 
        "use_aux_shift": "True", 
        "vector_quanti": "True"
      }, 
      "inputs": []
    }, 
    {
      "op": "QuantizationSte", 
      "name": "vargnetstage_3_unit_1_sep2_data_conv2d_pointwise_bshift", 
      "attr": {
        "__logging__": "True", 
        "__predict__": "False", 
        "bias_bits": "8", 
        "bits": "8", 
        "init_shift": "7", 
        "quantization_type": "bias", 
        "use_aux_shift": "True", 
        "vector_quanti": "True"
      }, 
      "inputs": [[275, 0, 0], [276, 0, 1]]
    }, 
    {
      "op": "Convolution", 
      "name": "vargnetstage_3_unit_1_sep2_data_conv2d_pointwise", 
      "attr": {
        "__predict__": "False", 
        "kernel": "(1, 1)", 
        "no_bias": "False", 
        "num_filter": "160", 
        "num_group": "1", 
        "pad": "(0, 0)", 
        "stride": "(1, 1)", 
        "workspace": "512"
      }, 
      "inputs": [[271, 0, 0], [274, 0, 0], [277, 0, 0]]
    }, 
    {
      "op": "null", 
      "name": "vargnetstage_3_unit_1_shortcut_conv2d_depthwise_weight", 
      "attr": {"__predict__": "False"}, 
      "inputs": []
    }, 
    {
      "op": "null", 
      "name": "vargnetstage_3_unit_1_shortcut_conv2d_depthwise_wshift_shift", 
      "attr": {
        "__logging__": "True", 
        "__predict__": "False", 
        "bias_bits": "8", 
        "bits": "8", 
        "init_shift": "7", 
        "quantization_type": "weight", 
        "use_aux_shift": "True", 
        "vector_quanti": "True"
      }, 
      "inputs": []
    }, 
    {
      "op": "QuantizationSte", 
      "name": "vargnetstage_3_unit_1_shortcut_conv2d_depthwise_wshift", 
      "attr": {
        "__logging__": "True", 
        "__predict__": "False", 
        "bias_bits": "8", 
        "bits": "8", 
        "init_shift": "7", 
        "quantization_type": "weight", 
        "use_aux_shift": "True", 
        "vector_quanti": "True"
      }, 
      "inputs": [[279, 0, 0], [280, 0, 1]]
    }, 
    {
      "op": "null", 
      "name": "vargnetstage_3_unit_1_shortcut_conv2d_depthwise_bias", 
      "attr": {"__predict__": "False"}, 
      "inputs": []
    }, 
    {
      "op": "null", 
      "name": "vargnetstage_3_unit_1_shortcut_conv2d_depthwise_bshift_shift", 
      "attr": {
        "__logging__": "True", 
        "__predict__": "False", 
        "bias_bits": "8", 
        "bits": "8", 
        "init_shift": "7", 
        "quantization_type": "bias", 
        "use_aux_shift": "True", 
        "vector_quanti": "True"
      }, 
      "inputs": []
    }, 
    {
      "op": "QuantizationSte", 
      "name": "vargnetstage_3_unit_1_shortcut_conv2d_depthwise_bshift", 
      "attr": {
        "__logging__": "True", 
        "__predict__": "False", 
        "bias_bits": "8", 
        "bits": "8", 
        "init_shift": "7", 
        "quantization_type": "bias", 
        "use_aux_shift": "True", 
        "vector_quanti": "True"
      }, 
      "inputs": [[282, 0, 0], [283, 0, 1]]
    }, 
    {
      "op": "Convolution", 
      "name": "vargnetstage_3_unit_1_shortcut_conv2d_depthwise", 
      "attr": {
        "__predict__": "False", 
        "__wd_mult__": "1", 
        "dilate": "(1, 1)", 
        "kernel": "(3, 3)", 
        "no_bias": "False", 
        "num_filter": "160", 
        "num_group": "10", 
        "pad": "(1, 1)", 
        "stride": "(2, 2)", 
        "workspace": "512"
      }, 
      "inputs": [[223, 0, 0], [281, 0, 0], [284, 0, 0]]
    }, 
    {
      "op": "null", 
      "name": "vargnetstage_3_unit_1_shortcut_conv2d_depthwise_quantidata_shift", 
      "attr": {
        "__force_mirroring__": "True", 
        "__logging__": "True", 
        "__predict__": "False", 
        "bias_bits": "8", 
        "bits": "8", 
        "init_shift": "4", 
        "quantization_type": "data"
      }, 
      "inputs": []
    }, 
    {
      "op": "QuantizationSte", 
      "name": "vargnetstage_3_unit_1_shortcut_conv2d_depthwise_quantidata", 
      "attr": {
        "__force_mirroring__": "True", 
        "__logging__": "True", 
        "__predict__": "False", 
        "bias_bits": "8", 
        "bits": "8", 
        "init_shift": "4", 
        "quantization_type": "data"
      }, 
      "inputs": [[285, 0, 0], [286, 0, 1]]
    }, 
    {
      "op": "null", 
      "name": "vargnetstage_3_unit_1_shortcut_conv2d_pointwise_weight", 
      "attr": {"__predict__": "False"}, 
      "inputs": []
    }, 
    {
      "op": "null", 
      "name": "vargnetstage_3_unit_1_shortcut_conv2d_pointwise_wshift_shift", 
      "attr": {
        "__logging__": "True", 
        "__predict__": "False", 
        "bias_bits": "8", 
        "bits": "8", 
        "init_shift": "7", 
        "quantization_type": "weight", 
        "use_aux_shift": "True", 
        "vector_quanti": "True"
      }, 
      "inputs": []
    }, 
    {
      "op": "QuantizationSte", 
      "name": "vargnetstage_3_unit_1_shortcut_conv2d_pointwise_wshift", 
      "attr": {
        "__logging__": "True", 
        "__predict__": "False", 
        "bias_bits": "8", 
        "bits": "8", 
        "init_shift": "7", 
        "quantization_type": "weight", 
        "use_aux_shift": "True", 
        "vector_quanti": "True"
      }, 
      "inputs": [[288, 0, 0], [289, 0, 1]]
    }, 
    {
      "op": "null", 
      "name": "vargnetstage_3_unit_1_shortcut_conv2d_pointwise_bias", 
      "attr": {"__predict__": "False"}, 
      "inputs": []
    }, 
    {
      "op": "null", 
      "name": "vargnetstage_3_unit_1_shortcut_conv2d_pointwise_bshift_shift", 
      "attr": {
        "__logging__": "True", 
        "__predict__": "False", 
        "bias_bits": "8", 
        "bits": "8", 
        "init_shift": "7", 
        "quantization_type": "bias", 
        "use_aux_shift": "True", 
        "vector_quanti": "True"
      }, 
      "inputs": []
    }, 
    {
      "op": "QuantizationSte", 
      "name": "vargnetstage_3_unit_1_shortcut_conv2d_pointwise_bshift", 
      "attr": {
        "__logging__": "True", 
        "__predict__": "False", 
        "bias_bits": "8", 
        "bits": "8", 
        "init_shift": "7", 
        "quantization_type": "bias", 
        "use_aux_shift": "True", 
        "vector_quanti": "True"
      }, 
      "inputs": [[291, 0, 0], [292, 0, 1]]
    }, 
    {
      "op": "Convolution", 
      "name": "vargnetstage_3_unit_1_shortcut_conv2d_pointwise", 
      "attr": {
        "__predict__": "False", 
        "kernel": "(1, 1)", 
        "no_bias": "False", 
        "num_filter": "160", 
        "num_group": "1", 
        "pad": "(0, 0)", 
        "stride": "(1, 1)", 
        "workspace": "512"
      }, 
      "inputs": [[287, 0, 0], [290, 0, 0], [293, 0, 0]]
    }, 
    {
      "op": "null", 
      "name": "vargnetstage_3_unit_1_shortcut_conv2d_pointwise_quantidata_shift", 
      "attr": {
        "__force_mirroring__": "True", 
        "__logging__": "True", 
        "__predict__": "False", 
        "bias_bits": "8", 
        "bits": "8", 
        "init_shift": "4", 
        "quantization_type": "data"
      }, 
      "inputs": []
    }, 
    {
      "op": "QuantizationSte", 
      "name": "vargnetstage_3_unit_1_shortcut_conv2d_pointwise_quantidata", 
      "attr": {
        "__force_mirroring__": "True", 
        "__logging__": "True", 
        "__predict__": "False", 
        "bias_bits": "8", 
        "bits": "8", 
        "init_shift": "4", 
        "quantization_type": "data"
      }, 
      "inputs": [[294, 0, 0], [295, 0, 1]]
    }, 
    {
      "op": "elemwise_add", 
      "name": "_plus6", 
      "attr": {
        "__force_mirroring__": "True", 
        "__predict__": "False"
      }, 
      "inputs": [[278, 0, 0], [296, 0, 0]]
    }, 
    {
      "op": "null", 
      "name": "vargnetstage_3_unit_1_sep2_data_conv2d_pointwise_quantidata_shift", 
      "attr": {
        "__force_mirroring__": "True", 
        "__logging__": "True", 
        "__predict__": "False", 
        "bias_bits": "8", 
        "bits": "8", 
        "init_shift": "4", 
        "quantization_type": "data"
      }, 
      "inputs": []
    }, 
    {
      "op": "QuantizationSte", 
      "name": "vargnetstage_3_unit_1_sep2_data_conv2d_pointwise_quantidata", 
      "attr": {
        "__force_mirroring__": "True", 
        "__logging__": "True", 
        "__predict__": "False", 
        "bias_bits": "8", 
        "bits": "8", 
        "init_shift": "4", 
        "quantization_type": "data"
      }, 
      "inputs": [[297, 0, 0], [298, 0, 1]]
    }, 
    {
      "op": "null", 
      "name": "vargnetstage_3_unit_2_sep1_data_conv2d_depthwise_weight", 
      "attr": {"__predict__": "False"}, 
      "inputs": []
    }, 
    {
      "op": "null", 
      "name": "vargnetstage_3_unit_2_sep1_data_conv2d_depthwise_wshift_shift", 
      "attr": {
        "__logging__": "True", 
        "__predict__": "False", 
        "bias_bits": "8", 
        "bits": "8", 
        "init_shift": "7", 
        "quantization_type": "weight", 
        "use_aux_shift": "True", 
        "vector_quanti": "True"
      }, 
      "inputs": []
    }, 
    {
      "op": "QuantizationSte", 
      "name": "vargnetstage_3_unit_2_sep1_data_conv2d_depthwise_wshift", 
      "attr": {
        "__logging__": "True", 
        "__predict__": "False", 
        "bias_bits": "8", 
        "bits": "8", 
        "init_shift": "7", 
        "quantization_type": "weight", 
        "use_aux_shift": "True", 
        "vector_quanti": "True"
      }, 
      "inputs": [[300, 0, 0], [301, 0, 1]]
    }, 
    {
      "op": "null", 
      "name": "vargnetstage_3_unit_2_sep1_data_conv2d_depthwise_bias", 
      "attr": {"__predict__": "False"}, 
      "inputs": []
    }, 
    {
      "op": "null", 
      "name": "vargnetstage_3_unit_2_sep1_data_conv2d_depthwise_bshift_shift", 
      "attr": {
        "__logging__": "True", 
        "__predict__": "False", 
        "bias_bits": "8", 
        "bits": "8", 
        "init_shift": "7", 
        "quantization_type": "bias", 
        "use_aux_shift": "True", 
        "vector_quanti": "True"
      }, 
      "inputs": []
    }, 
    {
      "op": "QuantizationSte", 
      "name": "vargnetstage_3_unit_2_sep1_data_conv2d_depthwise_bshift", 
      "attr": {
        "__logging__": "True", 
        "__predict__": "False", 
        "bias_bits": "8", 
        "bits": "8", 
        "init_shift": "7", 
        "quantization_type": "bias", 
        "use_aux_shift": "True", 
        "vector_quanti": "True"
      }, 
      "inputs": [[303, 0, 0], [304, 0, 1]]
    }, 
    {
      "op": "Convolution", 
      "name": "vargnetstage_3_unit_2_sep1_data_conv2d_depthwise", 
      "attr": {
        "__predict__": "False", 
        "__wd_mult__": "1", 
        "dilate": "(1, 1)", 
        "kernel": "(3, 3)", 
        "no_bias": "False", 
        "num_filter": "320", 
        "num_group": "20", 
        "pad": "(1, 1)", 
        "stride": "(1, 1)", 
        "workspace": "512"
      }, 
      "inputs": [[299, 0, 0], [302, 0, 0], [305, 0, 0]]
    }, 
    {
      "op": "QuantiActivation", 
      "name": "quantiactivation11", 
      "attr": {
        "__force_mirroring__": "True", 
        "__predict__": "False", 
        "act_type": "relu"
      }, 
      "inputs": [[306, 0, 0]]
    }, 
    {
      "op": "null", 
      "name": "vargnetstage_3_unit_2_sep1_data_conv2d_depthwise_quantidata_shift", 
      "attr": {
        "__force_mirroring__": "True", 
        "__logging__": "True", 
        "__predict__": "False", 
        "bias_bits": "8", 
        "bits": "8", 
        "init_shift": "4", 
        "quantization_type": "data"
      }, 
      "inputs": []
    }, 
    {
      "op": "QuantizationSte", 
      "name": "vargnetstage_3_unit_2_sep1_data_conv2d_depthwise_quantidata", 
      "attr": {
        "__force_mirroring__": "True", 
        "__logging__": "True", 
        "__predict__": "False", 
        "bias_bits": "8", 
        "bits": "8", 
        "init_shift": "4", 
        "quantization_type": "data"
      }, 
      "inputs": [[307, 0, 0], [308, 0, 1]]
    }, 
    {
      "op": "null", 
      "name": "vargnetstage_3_unit_2_sep1_data_conv2d_pointwise_weight", 
      "attr": {"__predict__": "False"}, 
      "inputs": []
    }, 
    {
      "op": "null", 
      "name": "vargnetstage_3_unit_2_sep1_data_conv2d_pointwise_wshift_shift", 
      "attr": {
        "__logging__": "True", 
        "__predict__": "False", 
        "bias_bits": "8", 
        "bits": "8", 
        "init_shift": "7", 
        "quantization_type": "weight", 
        "use_aux_shift": "True", 
        "vector_quanti": "True"
      }, 
      "inputs": []
    }, 
    {
      "op": "QuantizationSte", 
      "name": "vargnetstage_3_unit_2_sep1_data_conv2d_pointwise_wshift", 
      "attr": {
        "__logging__": "True", 
        "__predict__": "False", 
        "bias_bits": "8", 
        "bits": "8", 
        "init_shift": "7", 
        "quantization_type": "weight", 
        "use_aux_shift": "True", 
        "vector_quanti": "True"
      }, 
      "inputs": [[310, 0, 0], [311, 0, 1]]
    }, 
    {
      "op": "null", 
      "name": "vargnetstage_3_unit_2_sep1_data_conv2d_pointwise_bias", 
      "attr": {"__predict__": "False"}, 
      "inputs": []
    }, 
    {
      "op": "null", 
      "name": "vargnetstage_3_unit_2_sep1_data_conv2d_pointwise_bshift_shift", 
      "attr": {
        "__logging__": "True", 
        "__predict__": "False", 
        "bias_bits": "8", 
        "bits": "8", 
        "init_shift": "7", 
        "quantization_type": "bias", 
        "use_aux_shift": "True", 
        "vector_quanti": "True"
      }, 
      "inputs": []
    }, 
    {
      "op": "QuantizationSte", 
      "name": "vargnetstage_3_unit_2_sep1_data_conv2d_pointwise_bshift", 
      "attr": {
        "__logging__": "True", 
        "__predict__": "False", 
        "bias_bits": "8", 
        "bits": "8", 
        "init_shift": "7", 
        "quantization_type": "bias", 
        "use_aux_shift": "True", 
        "vector_quanti": "True"
      }, 
      "inputs": [[313, 0, 0], [314, 0, 1]]
    }, 
    {
      "op": "Convolution", 
      "name": "vargnetstage_3_unit_2_sep1_data_conv2d_pointwise", 
      "attr": {
        "__predict__": "False", 
        "kernel": "(1, 1)", 
        "no_bias": "False", 
        "num_filter": "160", 
        "num_group": "1", 
        "pad": "(0, 0)", 
        "stride": "(1, 1)", 
        "workspace": "512"
      }, 
      "inputs": [[309, 0, 0], [312, 0, 0], [315, 0, 0]]
    }, 
    {
      "op": "QuantiActivation", 
      "name": "quantiactivation12", 
      "attr": {
        "__force_mirroring__": "True", 
        "__predict__": "False", 
        "act_type": "relu"
      }, 
      "inputs": [[316, 0, 0]]
    }, 
    {
      "op": "null", 
      "name": "vargnetstage_3_unit_2_sep1_data_conv2d_pointwise_quantidata_shift", 
      "attr": {
        "__force_mirroring__": "True", 
        "__logging__": "True", 
        "__predict__": "False", 
        "bias_bits": "8", 
        "bits": "8", 
        "init_shift": "4", 
        "quantization_type": "data"
      }, 
      "inputs": []
    }, 
    {
      "op": "QuantizationSte", 
      "name": "vargnetstage_3_unit_2_sep1_data_conv2d_pointwise_quantidata", 
      "attr": {
        "__force_mirroring__": "True", 
        "__logging__": "True", 
        "__predict__": "False", 
        "bias_bits": "8", 
        "bits": "8", 
        "init_shift": "4", 
        "quantization_type": "data"
      }, 
      "inputs": [[317, 0, 0], [318, 0, 1]]
    }, 
    {
      "op": "null", 
      "name": "vargnetstage_3_unit_2_sep2_data_conv2d_depthwise_weight", 
      "attr": {"__predict__": "False"}, 
      "inputs": []
    }, 
    {
      "op": "null", 
      "name": "vargnetstage_3_unit_2_sep2_data_conv2d_depthwise_wshift_shift", 
      "attr": {
        "__logging__": "True", 
        "__predict__": "False", 
        "bias_bits": "8", 
        "bits": "8", 
        "init_shift": "7", 
        "quantization_type": "weight", 
        "use_aux_shift": "True", 
        "vector_quanti": "True"
      }, 
      "inputs": []
    }, 
    {
      "op": "QuantizationSte", 
      "name": "vargnetstage_3_unit_2_sep2_data_conv2d_depthwise_wshift", 
      "attr": {
        "__logging__": "True", 
        "__predict__": "False", 
        "bias_bits": "8", 
        "bits": "8", 
        "init_shift": "7", 
        "quantization_type": "weight", 
        "use_aux_shift": "True", 
        "vector_quanti": "True"
      }, 
      "inputs": [[320, 0, 0], [321, 0, 1]]
    }, 
    {
      "op": "null", 
      "name": "vargnetstage_3_unit_2_sep2_data_conv2d_depthwise_bias", 
      "attr": {"__predict__": "False"}, 
      "inputs": []
    }, 
    {
      "op": "null", 
      "name": "vargnetstage_3_unit_2_sep2_data_conv2d_depthwise_bshift_shift", 
      "attr": {
        "__logging__": "True", 
        "__predict__": "False", 
        "bias_bits": "8", 
        "bits": "8", 
        "init_shift": "7", 
        "quantization_type": "bias", 
        "use_aux_shift": "True", 
        "vector_quanti": "True"
      }, 
      "inputs": []
    }, 
    {
      "op": "QuantizationSte", 
      "name": "vargnetstage_3_unit_2_sep2_data_conv2d_depthwise_bshift", 
      "attr": {
        "__logging__": "True", 
        "__predict__": "False", 
        "bias_bits": "8", 
        "bits": "8", 
        "init_shift": "7", 
        "quantization_type": "bias", 
        "use_aux_shift": "True", 
        "vector_quanti": "True"
      }, 
      "inputs": [[323, 0, 0], [324, 0, 1]]
    }, 
    {
      "op": "Convolution", 
      "name": "vargnetstage_3_unit_2_sep2_data_conv2d_depthwise", 
      "attr": {
        "__predict__": "False", 
        "__wd_mult__": "1", 
        "dilate": "(1, 1)", 
        "kernel": "(3, 3)", 
        "no_bias": "False", 
        "num_filter": "320", 
        "num_group": "20", 
        "pad": "(1, 1)", 
        "stride": "(1, 1)", 
        "workspace": "512"
      }, 
      "inputs": [[319, 0, 0], [322, 0, 0], [325, 0, 0]]
    }, 
    {
      "op": "null", 
      "name": "vargnetstage_3_unit_2_sep2_data_conv2d_depthwise_quantidata_shift", 
      "attr": {
        "__force_mirroring__": "True", 
        "__logging__": "True", 
        "__predict__": "False", 
        "bias_bits": "8", 
        "bits": "8", 
        "init_shift": "4", 
        "quantization_type": "data"
      }, 
      "inputs": []
    }, 
    {
      "op": "QuantizationSte", 
      "name": "vargnetstage_3_unit_2_sep2_data_conv2d_depthwise_quantidata", 
      "attr": {
        "__force_mirroring__": "True", 
        "__logging__": "True", 
        "__predict__": "False", 
        "bias_bits": "8", 
        "bits": "8", 
        "init_shift": "4", 
        "quantization_type": "data"
      }, 
      "inputs": [[326, 0, 0], [327, 0, 1]]
    }, 
    {
      "op": "null", 
      "name": "vargnetstage_3_unit_2_sep2_data_conv2d_pointwise_weight", 
      "attr": {"__predict__": "False"}, 
      "inputs": []
    }, 
    {
      "op": "null", 
      "name": "vargnetstage_3_unit_2_sep2_data_conv2d_pointwise_wshift_shift", 
      "attr": {
        "__logging__": "True", 
        "__predict__": "False", 
        "bias_bits": "8", 
        "bits": "8", 
        "init_shift": "7", 
        "quantization_type": "weight", 
        "use_aux_shift": "True", 
        "vector_quanti": "True"
      }, 
      "inputs": []
    }, 
    {
      "op": "QuantizationSte", 
      "name": "vargnetstage_3_unit_2_sep2_data_conv2d_pointwise_wshift", 
      "attr": {
        "__logging__": "True", 
        "__predict__": "False", 
        "bias_bits": "8", 
        "bits": "8", 
        "init_shift": "7", 
        "quantization_type": "weight", 
        "use_aux_shift": "True", 
        "vector_quanti": "True"
      }, 
      "inputs": [[329, 0, 0], [330, 0, 1]]
    }, 
    {
      "op": "null", 
      "name": "vargnetstage_3_unit_2_sep2_data_conv2d_pointwise_bias", 
      "attr": {"__predict__": "False"}, 
      "inputs": []
    }, 
    {
      "op": "null", 
      "name": "vargnetstage_3_unit_2_sep2_data_conv2d_pointwise_bshift_shift", 
      "attr": {
        "__logging__": "True", 
        "__predict__": "False", 
        "bias_bits": "8", 
        "bits": "8", 
        "init_shift": "7", 
        "quantization_type": "bias", 
        "use_aux_shift": "True", 
        "vector_quanti": "True"
      }, 
      "inputs": []
    }, 
    {
      "op": "QuantizationSte", 
      "name": "vargnetstage_3_unit_2_sep2_data_conv2d_pointwise_bshift", 
      "attr": {
        "__logging__": "True", 
        "__predict__": "False", 
        "bias_bits": "8", 
        "bits": "8", 
        "init_shift": "7", 
        "quantization_type": "bias", 
        "use_aux_shift": "True", 
        "vector_quanti": "True"
      }, 
      "inputs": [[332, 0, 0], [333, 0, 1]]
    }, 
    {
      "op": "Convolution", 
      "name": "vargnetstage_3_unit_2_sep2_data_conv2d_pointwise", 
      "attr": {
        "__predict__": "False", 
        "kernel": "(1, 1)", 
        "no_bias": "False", 
        "num_filter": "160", 
        "num_group": "1", 
        "pad": "(0, 0)", 
        "stride": "(1, 1)", 
        "workspace": "512"
      }, 
      "inputs": [[328, 0, 0], [331, 0, 0], [334, 0, 0]]
    }, 
    {
      "op": "elemwise_add", 
      "name": "_plus7", 
      "attr": {
        "__force_mirroring__": "True", 
        "__predict__": "False"
      }, 
      "inputs": [[335, 0, 0], [299, 0, 0]]
    }, 
    {
      "op": "null", 
      "name": "vargnetstage_3_unit_2_sep2_data_conv2d_pointwise_quantidata_shift", 
      "attr": {
        "__force_mirroring__": "True", 
        "__logging__": "True", 
        "__predict__": "False", 
        "bias_bits": "8", 
        "bits": "8", 
        "init_shift": "4", 
        "quantization_type": "data"
      }, 
      "inputs": []
    }, 
    {
      "op": "QuantizationSte", 
      "name": "vargnetstage_3_unit_2_sep2_data_conv2d_pointwise_quantidata", 
      "attr": {
        "__force_mirroring__": "True", 
        "__logging__": "True", 
        "__predict__": "False", 
        "bias_bits": "8", 
        "bits": "8", 
        "init_shift": "4", 
        "quantization_type": "data"
      }, 
      "inputs": [[336, 0, 0], [337, 0, 1]]
    }, 
    {
      "op": "null", 
      "name": "vargnetstage_3_unit_3_sep1_data_conv2d_depthwise_weight", 
      "attr": {"__predict__": "False"}, 
      "inputs": []
    }, 
    {
      "op": "null", 
      "name": "vargnetstage_3_unit_3_sep1_data_conv2d_depthwise_wshift_shift", 
      "attr": {
        "__logging__": "True", 
        "__predict__": "False", 
        "bias_bits": "8", 
        "bits": "8", 
        "init_shift": "7", 
        "quantization_type": "weight", 
        "use_aux_shift": "True", 
        "vector_quanti": "True"
      }, 
      "inputs": []
    }, 
    {
      "op": "QuantizationSte", 
      "name": "vargnetstage_3_unit_3_sep1_data_conv2d_depthwise_wshift", 
      "attr": {
        "__logging__": "True", 
        "__predict__": "False", 
        "bias_bits": "8", 
        "bits": "8", 
        "init_shift": "7", 
        "quantization_type": "weight", 
        "use_aux_shift": "True", 
        "vector_quanti": "True"
      }, 
      "inputs": [[339, 0, 0], [340, 0, 1]]
    }, 
    {
      "op": "null", 
      "name": "vargnetstage_3_unit_3_sep1_data_conv2d_depthwise_bias", 
      "attr": {"__predict__": "False"}, 
      "inputs": []
    }, 
    {
      "op": "null", 
      "name": "vargnetstage_3_unit_3_sep1_data_conv2d_depthwise_bshift_shift", 
      "attr": {
        "__logging__": "True", 
        "__predict__": "False", 
        "bias_bits": "8", 
        "bits": "8", 
        "init_shift": "7", 
        "quantization_type": "bias", 
        "use_aux_shift": "True", 
        "vector_quanti": "True"
      }, 
      "inputs": []
    }, 
    {
      "op": "QuantizationSte", 
      "name": "vargnetstage_3_unit_3_sep1_data_conv2d_depthwise_bshift", 
      "attr": {
        "__logging__": "True", 
        "__predict__": "False", 
        "bias_bits": "8", 
        "bits": "8", 
        "init_shift": "7", 
        "quantization_type": "bias", 
        "use_aux_shift": "True", 
        "vector_quanti": "True"
      }, 
      "inputs": [[342, 0, 0], [343, 0, 1]]
    }, 
    {
      "op": "Convolution", 
      "name": "vargnetstage_3_unit_3_sep1_data_conv2d_depthwise", 
      "attr": {
        "__predict__": "False", 
        "__wd_mult__": "1", 
        "dilate": "(1, 1)", 
        "kernel": "(3, 3)", 
        "no_bias": "False", 
        "num_filter": "320", 
        "num_group": "20", 
        "pad": "(1, 1)", 
        "stride": "(1, 1)", 
        "workspace": "512"
      }, 
      "inputs": [[338, 0, 0], [341, 0, 0], [344, 0, 0]]
    }, 
    {
      "op": "QuantiActivation", 
      "name": "quantiactivation13", 
      "attr": {
        "__force_mirroring__": "True", 
        "__predict__": "False", 
        "act_type": "relu"
      }, 
      "inputs": [[345, 0, 0]]
    }, 
    {
      "op": "null", 
      "name": "vargnetstage_3_unit_3_sep1_data_conv2d_depthwise_quantidata_shift", 
      "attr": {
        "__force_mirroring__": "True", 
        "__logging__": "True", 
        "__predict__": "False", 
        "bias_bits": "8", 
        "bits": "8", 
        "init_shift": "4", 
        "quantization_type": "data"
      }, 
      "inputs": []
    }, 
    {
      "op": "QuantizationSte", 
      "name": "vargnetstage_3_unit_3_sep1_data_conv2d_depthwise_quantidata", 
      "attr": {
        "__force_mirroring__": "True", 
        "__logging__": "True", 
        "__predict__": "False", 
        "bias_bits": "8", 
        "bits": "8", 
        "init_shift": "4", 
        "quantization_type": "data"
      }, 
      "inputs": [[346, 0, 0], [347, 0, 1]]
    }, 
    {
      "op": "null", 
      "name": "vargnetstage_3_unit_3_sep1_data_conv2d_pointwise_weight", 
      "attr": {"__predict__": "False"}, 
      "inputs": []
    }, 
    {
      "op": "null", 
      "name": "vargnetstage_3_unit_3_sep1_data_conv2d_pointwise_wshift_shift", 
      "attr": {
        "__logging__": "True", 
        "__predict__": "False", 
        "bias_bits": "8", 
        "bits": "8", 
        "init_shift": "7", 
        "quantization_type": "weight", 
        "use_aux_shift": "True", 
        "vector_quanti": "True"
      }, 
      "inputs": []
    }, 
    {
      "op": "QuantizationSte", 
      "name": "vargnetstage_3_unit_3_sep1_data_conv2d_pointwise_wshift", 
      "attr": {
        "__logging__": "True", 
        "__predict__": "False", 
        "bias_bits": "8", 
        "bits": "8", 
        "init_shift": "7", 
        "quantization_type": "weight", 
        "use_aux_shift": "True", 
        "vector_quanti": "True"
      }, 
      "inputs": [[349, 0, 0], [350, 0, 1]]
    }, 
    {
      "op": "null", 
      "name": "vargnetstage_3_unit_3_sep1_data_conv2d_pointwise_bias", 
      "attr": {"__predict__": "False"}, 
      "inputs": []
    }, 
    {
      "op": "null", 
      "name": "vargnetstage_3_unit_3_sep1_data_conv2d_pointwise_bshift_shift", 
      "attr": {
        "__logging__": "True", 
        "__predict__": "False", 
        "bias_bits": "8", 
        "bits": "8", 
        "init_shift": "7", 
        "quantization_type": "bias", 
        "use_aux_shift": "True", 
        "vector_quanti": "True"
      }, 
      "inputs": []
    }, 
    {
      "op": "QuantizationSte", 
      "name": "vargnetstage_3_unit_3_sep1_data_conv2d_pointwise_bshift", 
      "attr": {
        "__logging__": "True", 
        "__predict__": "False", 
        "bias_bits": "8", 
        "bits": "8", 
        "init_shift": "7", 
        "quantization_type": "bias", 
        "use_aux_shift": "True", 
        "vector_quanti": "True"
      }, 
      "inputs": [[352, 0, 0], [353, 0, 1]]
    }, 
    {
      "op": "Convolution", 
      "name": "vargnetstage_3_unit_3_sep1_data_conv2d_pointwise", 
      "attr": {
        "__predict__": "False", 
        "kernel": "(1, 1)", 
        "no_bias": "False", 
        "num_filter": "160", 
        "num_group": "1", 
        "pad": "(0, 0)", 
        "stride": "(1, 1)", 
        "workspace": "512"
      }, 
      "inputs": [[348, 0, 0], [351, 0, 0], [354, 0, 0]]
    }, 
    {
      "op": "QuantiActivation", 
      "name": "quantiactivation14", 
      "attr": {
        "__force_mirroring__": "True", 
        "__predict__": "False", 
        "act_type": "relu"
      }, 
      "inputs": [[355, 0, 0]]
    }, 
    {
      "op": "null", 
      "name": "vargnetstage_3_unit_3_sep1_data_conv2d_pointwise_quantidata_shift", 
      "attr": {
        "__force_mirroring__": "True", 
        "__logging__": "True", 
        "__predict__": "False", 
        "bias_bits": "8", 
        "bits": "8", 
        "init_shift": "4", 
        "quantization_type": "data"
      }, 
      "inputs": []
    }, 
    {
      "op": "QuantizationSte", 
      "name": "vargnetstage_3_unit_3_sep1_data_conv2d_pointwise_quantidata", 
      "attr": {
        "__force_mirroring__": "True", 
        "__logging__": "True", 
        "__predict__": "False", 
        "bias_bits": "8", 
        "bits": "8", 
        "init_shift": "4", 
        "quantization_type": "data"
      }, 
      "inputs": [[356, 0, 0], [357, 0, 1]]
    }, 
    {
      "op": "null", 
      "name": "vargnetstage_3_unit_3_sep2_data_conv2d_depthwise_weight", 
      "attr": {"__predict__": "False"}, 
      "inputs": []
    }, 
    {
      "op": "null", 
      "name": "vargnetstage_3_unit_3_sep2_data_conv2d_depthwise_wshift_shift", 
      "attr": {
        "__logging__": "True", 
        "__predict__": "False", 
        "bias_bits": "8", 
        "bits": "8", 
        "init_shift": "7", 
        "quantization_type": "weight", 
        "use_aux_shift": "True", 
        "vector_quanti": "True"
      }, 
      "inputs": []
    }, 
    {
      "op": "QuantizationSte", 
      "name": "vargnetstage_3_unit_3_sep2_data_conv2d_depthwise_wshift", 
      "attr": {
        "__logging__": "True", 
        "__predict__": "False", 
        "bias_bits": "8", 
        "bits": "8", 
        "init_shift": "7", 
        "quantization_type": "weight", 
        "use_aux_shift": "True", 
        "vector_quanti": "True"
      }, 
      "inputs": [[359, 0, 0], [360, 0, 1]]
    }, 
    {
      "op": "null", 
      "name": "vargnetstage_3_unit_3_sep2_data_conv2d_depthwise_bias", 
      "attr": {"__predict__": "False"}, 
      "inputs": []
    }, 
    {
      "op": "null", 
      "name": "vargnetstage_3_unit_3_sep2_data_conv2d_depthwise_bshift_shift", 
      "attr": {
        "__logging__": "True", 
        "__predict__": "False", 
        "bias_bits": "8", 
        "bits": "8", 
        "init_shift": "7", 
        "quantization_type": "bias", 
        "use_aux_shift": "True", 
        "vector_quanti": "True"
      }, 
      "inputs": []
    }, 
    {
      "op": "QuantizationSte", 
      "name": "vargnetstage_3_unit_3_sep2_data_conv2d_depthwise_bshift", 
      "attr": {
        "__logging__": "True", 
        "__predict__": "False", 
        "bias_bits": "8", 
        "bits": "8", 
        "init_shift": "7", 
        "quantization_type": "bias", 
        "use_aux_shift": "True", 
        "vector_quanti": "True"
      }, 
      "inputs": [[362, 0, 0], [363, 0, 1]]
    }, 
    {
      "op": "Convolution", 
      "name": "vargnetstage_3_unit_3_sep2_data_conv2d_depthwise", 
      "attr": {
        "__predict__": "False", 
        "__wd_mult__": "1", 
        "dilate": "(1, 1)", 
        "kernel": "(3, 3)", 
        "no_bias": "False", 
        "num_filter": "320", 
        "num_group": "20", 
        "pad": "(1, 1)", 
        "stride": "(1, 1)", 
        "workspace": "512"
      }, 
      "inputs": [[358, 0, 0], [361, 0, 0], [364, 0, 0]]
    }, 
    {
      "op": "null", 
      "name": "vargnetstage_3_unit_3_sep2_data_conv2d_depthwise_quantidata_shift", 
      "attr": {
        "__force_mirroring__": "True", 
        "__logging__": "True", 
        "__predict__": "False", 
        "bias_bits": "8", 
        "bits": "8", 
        "init_shift": "4", 
        "quantization_type": "data"
      }, 
      "inputs": []
    }, 
    {
      "op": "QuantizationSte", 
      "name": "vargnetstage_3_unit_3_sep2_data_conv2d_depthwise_quantidata", 
      "attr": {
        "__force_mirroring__": "True", 
        "__logging__": "True", 
        "__predict__": "False", 
        "bias_bits": "8", 
        "bits": "8", 
        "init_shift": "4", 
        "quantization_type": "data"
      }, 
      "inputs": [[365, 0, 0], [366, 0, 1]]
    }, 
    {
      "op": "null", 
      "name": "vargnetstage_3_unit_3_sep2_data_conv2d_pointwise_weight", 
      "attr": {"__predict__": "False"}, 
      "inputs": []
    }, 
    {
      "op": "null", 
      "name": "vargnetstage_3_unit_3_sep2_data_conv2d_pointwise_wshift_shift", 
      "attr": {
        "__logging__": "True", 
        "__predict__": "False", 
        "bias_bits": "8", 
        "bits": "8", 
        "init_shift": "7", 
        "quantization_type": "weight", 
        "use_aux_shift": "True", 
        "vector_quanti": "True"
      }, 
      "inputs": []
    }, 
    {
      "op": "QuantizationSte", 
      "name": "vargnetstage_3_unit_3_sep2_data_conv2d_pointwise_wshift", 
      "attr": {
        "__logging__": "True", 
        "__predict__": "False", 
        "bias_bits": "8", 
        "bits": "8", 
        "init_shift": "7", 
        "quantization_type": "weight", 
        "use_aux_shift": "True", 
        "vector_quanti": "True"
      }, 
      "inputs": [[368, 0, 0], [369, 0, 1]]
    }, 
    {
      "op": "null", 
      "name": "vargnetstage_3_unit_3_sep2_data_conv2d_pointwise_bias", 
      "attr": {"__predict__": "False"}, 
      "inputs": []
    }, 
    {
      "op": "null", 
      "name": "vargnetstage_3_unit_3_sep2_data_conv2d_pointwise_bshift_shift", 
      "attr": {
        "__logging__": "True", 
        "__predict__": "False", 
        "bias_bits": "8", 
        "bits": "8", 
        "init_shift": "7", 
        "quantization_type": "bias", 
        "use_aux_shift": "True", 
        "vector_quanti": "True"
      }, 
      "inputs": []
    }, 
    {
      "op": "QuantizationSte", 
      "name": "vargnetstage_3_unit_3_sep2_data_conv2d_pointwise_bshift", 
      "attr": {
        "__logging__": "True", 
        "__predict__": "False", 
        "bias_bits": "8", 
        "bits": "8", 
        "init_shift": "7", 
        "quantization_type": "bias", 
        "use_aux_shift": "True", 
        "vector_quanti": "True"
      }, 
      "inputs": [[371, 0, 0], [372, 0, 1]]
    }, 
    {
      "op": "Convolution", 
      "name": "vargnetstage_3_unit_3_sep2_data_conv2d_pointwise", 
      "attr": {
        "__predict__": "False", 
        "kernel": "(1, 1)", 
        "no_bias": "False", 
        "num_filter": "160", 
        "num_group": "1", 
        "pad": "(0, 0)", 
        "stride": "(1, 1)", 
        "workspace": "512"
      }, 
      "inputs": [[367, 0, 0], [370, 0, 0], [373, 0, 0]]
    }, 
    {
      "op": "elemwise_add", 
      "name": "_plus8", 
      "attr": {
        "__force_mirroring__": "True", 
        "__predict__": "False"
      }, 
      "inputs": [[374, 0, 0], [338, 0, 0]]
    }, 
    {
      "op": "null", 
      "name": "vargnetstage_3_unit_3_sep2_data_conv2d_pointwise_quantidata_shift", 
      "attr": {
        "__force_mirroring__": "True", 
        "__logging__": "True", 
        "__predict__": "False", 
        "bias_bits": "8", 
        "bits": "8", 
        "init_shift": "4", 
        "quantization_type": "data"
      }, 
      "inputs": []
    }, 
    {
      "op": "QuantizationSte", 
      "name": "vargnetstage_3_unit_3_sep2_data_conv2d_pointwise_quantidata", 
      "attr": {
        "__force_mirroring__": "True", 
        "__logging__": "True", 
        "__predict__": "False", 
        "bias_bits": "8", 
        "bits": "8", 
        "init_shift": "4", 
        "quantization_type": "data"
      }, 
      "inputs": [[375, 0, 0], [376, 0, 1]]
    }, 
    {
      "op": "null", 
      "name": "vargnetstage_3_unit_4_sep1_data_conv2d_depthwise_weight", 
      "attr": {"__predict__": "False"}, 
      "inputs": []
    }, 
    {
      "op": "null", 
      "name": "vargnetstage_3_unit_4_sep1_data_conv2d_depthwise_wshift_shift", 
      "attr": {
        "__logging__": "True", 
        "__predict__": "False", 
        "bias_bits": "8", 
        "bits": "8", 
        "init_shift": "7", 
        "quantization_type": "weight", 
        "use_aux_shift": "True", 
        "vector_quanti": "True"
      }, 
      "inputs": []
    }, 
    {
      "op": "QuantizationSte", 
      "name": "vargnetstage_3_unit_4_sep1_data_conv2d_depthwise_wshift", 
      "attr": {
        "__logging__": "True", 
        "__predict__": "False", 
        "bias_bits": "8", 
        "bits": "8", 
        "init_shift": "7", 
        "quantization_type": "weight", 
        "use_aux_shift": "True", 
        "vector_quanti": "True"
      }, 
      "inputs": [[378, 0, 0], [379, 0, 1]]
    }, 
    {
      "op": "null", 
      "name": "vargnetstage_3_unit_4_sep1_data_conv2d_depthwise_bias", 
      "attr": {"__predict__": "False"}, 
      "inputs": []
    }, 
    {
      "op": "null", 
      "name": "vargnetstage_3_unit_4_sep1_data_conv2d_depthwise_bshift_shift", 
      "attr": {
        "__logging__": "True", 
        "__predict__": "False", 
        "bias_bits": "8", 
        "bits": "8", 
        "init_shift": "7", 
        "quantization_type": "bias", 
        "use_aux_shift": "True", 
        "vector_quanti": "True"
      }, 
      "inputs": []
    }, 
    {
      "op": "QuantizationSte", 
      "name": "vargnetstage_3_unit_4_sep1_data_conv2d_depthwise_bshift", 
      "attr": {
        "__logging__": "True", 
        "__predict__": "False", 
        "bias_bits": "8", 
        "bits": "8", 
        "init_shift": "7", 
        "quantization_type": "bias", 
        "use_aux_shift": "True", 
        "vector_quanti": "True"
      }, 
      "inputs": [[381, 0, 0], [382, 0, 1]]
    }, 
    {
      "op": "Convolution", 
      "name": "vargnetstage_3_unit_4_sep1_data_conv2d_depthwise", 
      "attr": {
        "__predict__": "False", 
        "__wd_mult__": "1", 
        "dilate": "(1, 1)", 
        "kernel": "(3, 3)", 
        "no_bias": "False", 
        "num_filter": "320", 
        "num_group": "20", 
        "pad": "(1, 1)", 
        "stride": "(1, 1)", 
        "workspace": "512"
      }, 
      "inputs": [[377, 0, 0], [380, 0, 0], [383, 0, 0]]
    }, 
    {
      "op": "QuantiActivation", 
      "name": "quantiactivation15", 
      "attr": {
        "__force_mirroring__": "True", 
        "__predict__": "False", 
        "act_type": "relu"
      }, 
      "inputs": [[384, 0, 0]]
    }, 
    {
      "op": "null", 
      "name": "vargnetstage_3_unit_4_sep1_data_conv2d_depthwise_quantidata_shift", 
      "attr": {
        "__force_mirroring__": "True", 
        "__logging__": "True", 
        "__predict__": "False", 
        "bias_bits": "8", 
        "bits": "8", 
        "init_shift": "4", 
        "quantization_type": "data"
      }, 
      "inputs": []
    }, 
    {
      "op": "QuantizationSte", 
      "name": "vargnetstage_3_unit_4_sep1_data_conv2d_depthwise_quantidata", 
      "attr": {
        "__force_mirroring__": "True", 
        "__logging__": "True", 
        "__predict__": "False", 
        "bias_bits": "8", 
        "bits": "8", 
        "init_shift": "4", 
        "quantization_type": "data"
      }, 
      "inputs": [[385, 0, 0], [386, 0, 1]]
    }, 
    {
      "op": "null", 
      "name": "vargnetstage_3_unit_4_sep1_data_conv2d_pointwise_weight", 
      "attr": {"__predict__": "False"}, 
      "inputs": []
    }, 
    {
      "op": "null", 
      "name": "vargnetstage_3_unit_4_sep1_data_conv2d_pointwise_wshift_shift", 
      "attr": {
        "__logging__": "True", 
        "__predict__": "False", 
        "bias_bits": "8", 
        "bits": "8", 
        "init_shift": "7", 
        "quantization_type": "weight", 
        "use_aux_shift": "True", 
        "vector_quanti": "True"
      }, 
      "inputs": []
    }, 
    {
      "op": "QuantizationSte", 
      "name": "vargnetstage_3_unit_4_sep1_data_conv2d_pointwise_wshift", 
      "attr": {
        "__logging__": "True", 
        "__predict__": "False", 
        "bias_bits": "8", 
        "bits": "8", 
        "init_shift": "7", 
        "quantization_type": "weight", 
        "use_aux_shift": "True", 
        "vector_quanti": "True"
      }, 
      "inputs": [[388, 0, 0], [389, 0, 1]]
    }, 
    {
      "op": "null", 
      "name": "vargnetstage_3_unit_4_sep1_data_conv2d_pointwise_bias", 
      "attr": {"__predict__": "False"}, 
      "inputs": []
    }, 
    {
      "op": "null", 
      "name": "vargnetstage_3_unit_4_sep1_data_conv2d_pointwise_bshift_shift", 
      "attr": {
        "__logging__": "True", 
        "__predict__": "False", 
        "bias_bits": "8", 
        "bits": "8", 
        "init_shift": "7", 
        "quantization_type": "bias", 
        "use_aux_shift": "True", 
        "vector_quanti": "True"
      }, 
      "inputs": []
    }, 
    {
      "op": "QuantizationSte", 
      "name": "vargnetstage_3_unit_4_sep1_data_conv2d_pointwise_bshift", 
      "attr": {
        "__logging__": "True", 
        "__predict__": "False", 
        "bias_bits": "8", 
        "bits": "8", 
        "init_shift": "7", 
        "quantization_type": "bias", 
        "use_aux_shift": "True", 
        "vector_quanti": "True"
      }, 
      "inputs": [[391, 0, 0], [392, 0, 1]]
    }, 
    {
      "op": "Convolution", 
      "name": "vargnetstage_3_unit_4_sep1_data_conv2d_pointwise", 
      "attr": {
        "__predict__": "False", 
        "kernel": "(1, 1)", 
        "no_bias": "False", 
        "num_filter": "160", 
        "num_group": "1", 
        "pad": "(0, 0)", 
        "stride": "(1, 1)", 
        "workspace": "512"
      }, 
      "inputs": [[387, 0, 0], [390, 0, 0], [393, 0, 0]]
    }, 
    {
      "op": "QuantiActivation", 
      "name": "quantiactivation16", 
      "attr": {
        "__force_mirroring__": "True", 
        "__predict__": "False", 
        "act_type": "relu"
      }, 
      "inputs": [[394, 0, 0]]
    }, 
    {
      "op": "null", 
      "name": "vargnetstage_3_unit_4_sep1_data_conv2d_pointwise_quantidata_shift", 
      "attr": {
        "__force_mirroring__": "True", 
        "__logging__": "True", 
        "__predict__": "False", 
        "bias_bits": "8", 
        "bits": "8", 
        "init_shift": "4", 
        "quantization_type": "data"
      }, 
      "inputs": []
    }, 
    {
      "op": "QuantizationSte", 
      "name": "vargnetstage_3_unit_4_sep1_data_conv2d_pointwise_quantidata", 
      "attr": {
        "__force_mirroring__": "True", 
        "__logging__": "True", 
        "__predict__": "False", 
        "bias_bits": "8", 
        "bits": "8", 
        "init_shift": "4", 
        "quantization_type": "data"
      }, 
      "inputs": [[395, 0, 0], [396, 0, 1]]
    }, 
    {
      "op": "null", 
      "name": "vargnetstage_3_unit_4_sep2_data_conv2d_depthwise_weight", 
      "attr": {"__predict__": "False"}, 
      "inputs": []
    }, 
    {
      "op": "null", 
      "name": "vargnetstage_3_unit_4_sep2_data_conv2d_depthwise_wshift_shift", 
      "attr": {
        "__logging__": "True", 
        "__predict__": "False", 
        "bias_bits": "8", 
        "bits": "8", 
        "init_shift": "7", 
        "quantization_type": "weight", 
        "use_aux_shift": "True", 
        "vector_quanti": "True"
      }, 
      "inputs": []
    }, 
    {
      "op": "QuantizationSte", 
      "name": "vargnetstage_3_unit_4_sep2_data_conv2d_depthwise_wshift", 
      "attr": {
        "__logging__": "True", 
        "__predict__": "False", 
        "bias_bits": "8", 
        "bits": "8", 
        "init_shift": "7", 
        "quantization_type": "weight", 
        "use_aux_shift": "True", 
        "vector_quanti": "True"
      }, 
      "inputs": [[398, 0, 0], [399, 0, 1]]
    }, 
    {
      "op": "null", 
      "name": "vargnetstage_3_unit_4_sep2_data_conv2d_depthwise_bias", 
      "attr": {"__predict__": "False"}, 
      "inputs": []
    }, 
    {
      "op": "null", 
      "name": "vargnetstage_3_unit_4_sep2_data_conv2d_depthwise_bshift_shift", 
      "attr": {
        "__logging__": "True", 
        "__predict__": "False", 
        "bias_bits": "8", 
        "bits": "8", 
        "init_shift": "7", 
        "quantization_type": "bias", 
        "use_aux_shift": "True", 
        "vector_quanti": "True"
      }, 
      "inputs": []
    }, 
    {
      "op": "QuantizationSte", 
      "name": "vargnetstage_3_unit_4_sep2_data_conv2d_depthwise_bshift", 
      "attr": {
        "__logging__": "True", 
        "__predict__": "False", 
        "bias_bits": "8", 
        "bits": "8", 
        "init_shift": "7", 
        "quantization_type": "bias", 
        "use_aux_shift": "True", 
        "vector_quanti": "True"
      }, 
      "inputs": [[401, 0, 0], [402, 0, 1]]
    }, 
    {
      "op": "Convolution", 
      "name": "vargnetstage_3_unit_4_sep2_data_conv2d_depthwise", 
      "attr": {
        "__predict__": "False", 
        "__wd_mult__": "1", 
        "dilate": "(1, 1)", 
        "kernel": "(3, 3)", 
        "no_bias": "False", 
        "num_filter": "320", 
        "num_group": "20", 
        "pad": "(1, 1)", 
        "stride": "(1, 1)", 
        "workspace": "512"
      }, 
      "inputs": [[397, 0, 0], [400, 0, 0], [403, 0, 0]]
    }, 
    {
      "op": "null", 
      "name": "vargnetstage_3_unit_4_sep2_data_conv2d_depthwise_quantidata_shift", 
      "attr": {
        "__force_mirroring__": "True", 
        "__logging__": "True", 
        "__predict__": "False", 
        "bias_bits": "8", 
        "bits": "8", 
        "init_shift": "4", 
        "quantization_type": "data"
      }, 
      "inputs": []
    }, 
    {
      "op": "QuantizationSte", 
      "name": "vargnetstage_3_unit_4_sep2_data_conv2d_depthwise_quantidata", 
      "attr": {
        "__force_mirroring__": "True", 
        "__logging__": "True", 
        "__predict__": "False", 
        "bias_bits": "8", 
        "bits": "8", 
        "init_shift": "4", 
        "quantization_type": "data"
      }, 
      "inputs": [[404, 0, 0], [405, 0, 1]]
    }, 
    {
      "op": "null", 
      "name": "vargnetstage_3_unit_4_sep2_data_conv2d_pointwise_weight", 
      "attr": {"__predict__": "False"}, 
      "inputs": []
    }, 
    {
      "op": "null", 
      "name": "vargnetstage_3_unit_4_sep2_data_conv2d_pointwise_wshift_shift", 
      "attr": {
        "__logging__": "True", 
        "__predict__": "False", 
        "bias_bits": "8", 
        "bits": "8", 
        "init_shift": "7", 
        "quantization_type": "weight", 
        "use_aux_shift": "True", 
        "vector_quanti": "True"
      }, 
      "inputs": []
    }, 
    {
      "op": "QuantizationSte", 
      "name": "vargnetstage_3_unit_4_sep2_data_conv2d_pointwise_wshift", 
      "attr": {
        "__logging__": "True", 
        "__predict__": "False", 
        "bias_bits": "8", 
        "bits": "8", 
        "init_shift": "7", 
        "quantization_type": "weight", 
        "use_aux_shift": "True", 
        "vector_quanti": "True"
      }, 
      "inputs": [[407, 0, 0], [408, 0, 1]]
    }, 
    {
      "op": "null", 
      "name": "vargnetstage_3_unit_4_sep2_data_conv2d_pointwise_bias", 
      "attr": {"__predict__": "False"}, 
      "inputs": []
    }, 
    {
      "op": "null", 
      "name": "vargnetstage_3_unit_4_sep2_data_conv2d_pointwise_bshift_shift", 
      "attr": {
        "__logging__": "True", 
        "__predict__": "False", 
        "bias_bits": "8", 
        "bits": "8", 
        "init_shift": "7", 
        "quantization_type": "bias", 
        "use_aux_shift": "True", 
        "vector_quanti": "True"
      }, 
      "inputs": []
    }, 
    {
      "op": "QuantizationSte", 
      "name": "vargnetstage_3_unit_4_sep2_data_conv2d_pointwise_bshift", 
      "attr": {
        "__logging__": "True", 
        "__predict__": "False", 
        "bias_bits": "8", 
        "bits": "8", 
        "init_shift": "7", 
        "quantization_type": "bias", 
        "use_aux_shift": "True", 
        "vector_quanti": "True"
      }, 
      "inputs": [[410, 0, 0], [411, 0, 1]]
    }, 
    {
      "op": "Convolution", 
      "name": "vargnetstage_3_unit_4_sep2_data_conv2d_pointwise", 
      "attr": {
        "__predict__": "False", 
        "kernel": "(1, 1)", 
        "no_bias": "False", 
        "num_filter": "160", 
        "num_group": "1", 
        "pad": "(0, 0)", 
        "stride": "(1, 1)", 
        "workspace": "512"
      }, 
      "inputs": [[406, 0, 0], [409, 0, 0], [412, 0, 0]]
    }, 
    {
      "op": "elemwise_add", 
      "name": "_plus9", 
      "attr": {
        "__force_mirroring__": "True", 
        "__predict__": "False"
      }, 
      "inputs": [[413, 0, 0], [377, 0, 0]]
    }, 
    {
      "op": "null", 
      "name": "vargnetstage_3_unit_4_sep2_data_conv2d_pointwise_quantidata_shift", 
      "attr": {
        "__force_mirroring__": "True", 
        "__logging__": "True", 
        "__predict__": "False", 
        "bias_bits": "8", 
        "bits": "8", 
        "init_shift": "4", 
        "quantization_type": "data"
      }, 
      "inputs": []
    }, 
    {
      "op": "QuantizationSte", 
      "name": "vargnetstage_3_unit_4_sep2_data_conv2d_pointwise_quantidata", 
      "attr": {
        "__force_mirroring__": "True", 
        "__logging__": "True", 
        "__predict__": "False", 
        "bias_bits": "8", 
        "bits": "8", 
        "init_shift": "4", 
        "quantization_type": "data"
      }, 
      "inputs": [[414, 0, 0], [415, 0, 1]]
    }, 
    {
      "op": "null", 
      "name": "vargnetstage_4_unit_1_sep2_data_branch_conv2d_depthwise_weight", 
      "attr": {"__predict__": "False"}, 
      "inputs": []
    }, 
    {
      "op": "null", 
      "name": "vargnetstage_4_unit_1_sep2_data_branch_conv2d_depthwise_wshift_shift", 
      "attr": {
        "__logging__": "True", 
        "__predict__": "False", 
        "bias_bits": "8", 
        "bits": "8", 
        "init_shift": "7", 
        "quantization_type": "weight", 
        "use_aux_shift": "True", 
        "vector_quanti": "True"
      }, 
      "inputs": []
    }, 
    {
      "op": "QuantizationSte", 
      "name": "vargnetstage_4_unit_1_sep2_data_branch_conv2d_depthwise_wshift", 
      "attr": {
        "__logging__": "True", 
        "__predict__": "False", 
        "bias_bits": "8", 
        "bits": "8", 
        "init_shift": "7", 
        "quantization_type": "weight", 
        "use_aux_shift": "True", 
        "vector_quanti": "True"
      }, 
      "inputs": [[417, 0, 0], [418, 0, 1]]
    }, 
    {
      "op": "null", 
      "name": "vargnetstage_4_unit_1_sep2_data_branch_conv2d_depthwise_bias", 
      "attr": {"__predict__": "False"}, 
      "inputs": []
    }, 
    {
      "op": "null", 
      "name": "vargnetstage_4_unit_1_sep2_data_branch_conv2d_depthwise_bshift_shift", 
      "attr": {
        "__logging__": "True", 
        "__predict__": "False", 
        "bias_bits": "8", 
        "bits": "8", 
        "init_shift": "7", 
        "quantization_type": "bias", 
        "use_aux_shift": "True", 
        "vector_quanti": "True"
      }, 
      "inputs": []
    }, 
    {
      "op": "QuantizationSte", 
      "name": "vargnetstage_4_unit_1_sep2_data_branch_conv2d_depthwise_bshift", 
      "attr": {
        "__logging__": "True", 
        "__predict__": "False", 
        "bias_bits": "8", 
        "bits": "8", 
        "init_shift": "7", 
        "quantization_type": "bias", 
        "use_aux_shift": "True", 
        "vector_quanti": "True"
      }, 
      "inputs": [[420, 0, 0], [421, 0, 1]]
    }, 
    {
      "op": "Convolution", 
      "name": "vargnetstage_4_unit_1_sep2_data_branch_conv2d_depthwise", 
      "attr": {
        "__predict__": "False", 
        "__wd_mult__": "1", 
        "dilate": "(1, 1)", 
        "kernel": "(3, 3)", 
        "no_bias": "False", 
        "num_filter": "320", 
        "num_group": "20", 
        "pad": "(1, 1)", 
        "stride": "(2, 2)", 
        "workspace": "512"
      }, 
      "inputs": [[416, 0, 0], [419, 0, 0], [422, 0, 0]]
    }, 
    {
      "op": "QuantiActivation", 
      "name": "quantiactivation17", 
      "attr": {
        "__force_mirroring__": "True", 
        "__predict__": "False", 
        "act_type": "relu"
      }, 
      "inputs": [[423, 0, 0]]
    }, 
    {
      "op": "null", 
…
      "inputs": [[763, 0, 0], [766, 0, 0], [769, 0, 0]]
    }, 
    {
      "op": "QuantiActivation", 
      "name": "quantiactivation31", 
      "attr": {
        "__force_mirroring__": "True", 
        "__predict__": "False", 
        "act_type": "relu"
      }, 
      "inputs": [[770, 0, 0]]
    }, 
    {
      "op": "null", 
      "name": "vargnetstage_5_unit_2_sep1_data_conv2d_depthwise_quantidata_shift", 
      "attr": {
        "__force_mirroring__": "True", 
        "__logging__": "True", 
        "__predict__": "False", 
        "bias_bits": "8", 
        "bits": "8", 
        "init_shift": "4", 
        "quantization_type": "data"
      }, 
      "inputs": []
    }, 
    {
      "op": "QuantizationSte", 
      "name": "vargnetstage_5_unit_2_sep1_data_conv2d_depthwise_quantidata", 
      "attr": {
        "__force_mirroring__": "True", 
        "__logging__": "True", 
        "__predict__": "False", 
        "bias_bits": "8", 
        "bits": "8", 
        "init_shift": "4", 
        "quantization_type": "data"
      }, 
      "inputs": [[771, 0, 0], [772, 0, 1]]
    }, 
    {
      "op": "null", 
      "name": "vargnetstage_5_unit_2_sep1_data_conv2d_pointwise_weight", 
      "attr": {"__predict__": "False"}, 
      "inputs": []
    }, 
    {
      "op": "null", 
      "name": "vargnetstage_5_unit_2_sep1_data_conv2d_pointwise_wshift_shift", 
      "attr": {
        "__logging__": "True", 
        "__predict__": "False", 
        "bias_bits": "8", 
        "bits": "8", 
        "init_shift": "7", 
        "quantization_type": "weight", 
        "use_aux_shift": "True", 
        "vector_quanti": "True"
      }, 
      "inputs": []
    }, 
    {
      "op": "QuantizationSte", 
      "name": "vargnetstage_5_unit_2_sep1_data_conv2d_pointwise_wshift", 
      "attr": {
        "__logging__": "True", 
        "__predict__": "False", 
        "bias_bits": "8", 
        "bits": "8", 
        "init_shift": "7", 
        "quantization_type": "weight", 
        "use_aux_shift": "True", 
        "vector_quanti": "True"
      }, 
      "inputs": [[774, 0, 0], [775, 0, 1]]
    }, 
    {
      "op": "null", 
      "name": "vargnetstage_5_unit_2_sep1_data_conv2d_pointwise_bias", 
      "attr": {"__predict__": "False"}, 
      "inputs": []
    }, 
    {
      "op": "null", 
      "name": "vargnetstage_5_unit_2_sep1_data_conv2d_pointwise_bshift_shift", 
      "attr": {
        "__logging__": "True", 
        "__predict__": "False", 
        "bias_bits": "8", 
        "bits": "8", 
        "init_shift": "7", 
        "quantization_type": "bias", 
        "use_aux_shift": "True", 
        "vector_quanti": "True"
      }, 
      "inputs": []
    }, 
    {
      "op": "QuantizationSte", 
      "name": "vargnetstage_5_unit_2_sep1_data_conv2d_pointwise_bshift", 
      "attr": {
        "__logging__": "True", 
        "__predict__": "False", 
        "bias_bits": "8", 
        "bits": "8", 
        "init_shift": "7", 
        "quantization_type": "bias", 
        "use_aux_shift": "True", 
        "vector_quanti": "True"
      }, 
      "inputs": [[777, 0, 0], [778, 0, 1]]
    }, 
    {
      "op": "Convolution", 
      "name": "vargnetstage_5_unit_2_sep1_data_conv2d_pointwise", 
      "attr": {
        "__predict__": "False", 
        "kernel": "(1, 1)", 
        "no_bias": "False", 
        "num_filter": "640", 
        "num_group": "1", 
        "pad": "(0, 0)", 
        "stride": "(1, 1)", 
        "workspace": "512"
      }, 
      "inputs": [[773, 0, 0], [776, 0, 0], [779, 0, 0]]
    }, 
    {
      "op": "QuantiActivation", 
      "name": "quantiactivation32", 
      "attr": {
        "__force_mirroring__": "True", 
        "__predict__": "False", 
        "act_type": "relu"
      }, 
      "inputs": [[780, 0, 0]]
    }, 
    {
      "op": "null", 
      "name": "vargnetstage_5_unit_2_sep1_data_conv2d_pointwise_quantidata_shift", 
      "attr": {
        "__force_mirroring__": "True", 
        "__logging__": "True", 
        "__predict__": "False", 
        "bias_bits": "8", 
        "bits": "8", 
        "init_shift": "4", 
        "quantization_type": "data"
      }, 
      "inputs": []
    }, 
    {
      "op": "QuantizationSte", 
      "name": "vargnetstage_5_unit_2_sep1_data_conv2d_pointwise_quantidata", 
      "attr": {
        "__force_mirroring__": "True", 
        "__logging__": "True", 
        "__predict__": "False", 
        "bias_bits": "8", 
        "bits": "8", 
        "init_shift": "4", 
        "quantization_type": "data"
      }, 
      "inputs": [[781, 0, 0], [782, 0, 1]]
    }, 
    {
      "op": "null", 
      "name": "vargnetstage_5_unit_2_sep2_data_conv2d_depthwise_weight", 
      "attr": {"__predict__": "False"}, 
      "inputs": []
    }, 
    {
      "op": "null", 
      "name": "vargnetstage_5_unit_2_sep2_data_conv2d_depthwise_wshift_shift", 
      "attr": {
        "__logging__": "True", 
        "__predict__": "False", 
        "bias_bits": "8", 
        "bits": "8", 
        "init_shift": "7", 
        "quantization_type": "weight", 
        "use_aux_shift": "True", 
        "vector_quanti": "True"
      }, 
      "inputs": []
    }, 
    {
      "op": "QuantizationSte", 
      "name": "vargnetstage_5_unit_2_sep2_data_conv2d_depthwise_wshift", 
      "attr": {
        "__logging__": "True", 
        "__predict__": "False", 
        "bias_bits": "8", 
        "bits": "8", 
        "init_shift": "7", 
        "quantization_type": "weight", 
        "use_aux_shift": "True", 
        "vector_quanti": "True"
      }, 
      "inputs": [[784, 0, 0], [785, 0, 1]]
    }, 
    {
      "op": "null", 
      "name": "vargnetstage_5_unit_2_sep2_data_conv2d_depthwise_bias", 
      "attr": {"__predict__": "False"}, 
      "inputs": []
    }, 
    {
      "op": "null", 
      "name": "vargnetstage_5_unit_2_sep2_data_conv2d_depthwise_bshift_shift", 
      "attr": {
        "__logging__": "True", 
        "__predict__": "False", 
        "bias_bits": "8", 
        "bits": "8", 
        "init_shift": "7", 
        "quantization_type": "bias", 
        "use_aux_shift": "True", 
        "vector_quanti": "True"
      }, 
      "inputs": []
    }, 
    {
      "op": "QuantizationSte", 
      "name": "vargnetstage_5_unit_2_sep2_data_conv2d_depthwise_bshift", 
      "attr": {
        "__logging__": "True", 
        "__predict__": "False", 
        "bias_bits": "8", 
        "bits": "8", 
        "init_shift": "7", 
        "quantization_type": "bias", 
        "use_aux_shift": "True", 
        "vector_quanti": "True"
      }, 
      "inputs": [[787, 0, 0], [788, 0, 1]]
    }, 
    {
      "op": "Convolution", 
      "name": "vargnetstage_5_unit_2_sep2_data_conv2d_depthwise", 
      "attr": {
        "__predict__": "False", 
        "__wd_mult__": "1", 
        "dilate": "(1, 1)", 
        "kernel": "(3, 3)", 
        "no_bias": "False", 
        "num_filter": "1280", 
        "num_group": "80", 
        "pad": "(1, 1)", 
        "stride": "(1, 1)", 
        "workspace": "512"
      }, 
      "inputs": [[783, 0, 0], [786, 0, 0], [789, 0, 0]]
    }, 
    {
      "op": "null", 
      "name": "vargnetstage_5_unit_2_sep2_data_conv2d_depthwise_quantidata_shift", 
      "attr": {
        "__force_mirroring__": "True", 
        "__logging__": "True", 
        "__predict__": "False", 
        "bias_bits": "8", 
        "bits": "8", 
        "init_shift": "4", 
        "quantization_type": "data"
      }, 
      "inputs": []
    }, 
    {
      "op": "QuantizationSte", 
      "name": "vargnetstage_5_unit_2_sep2_data_conv2d_depthwise_quantidata", 
      "attr": {
        "__force_mirroring__": "True", 
        "__logging__": "True", 
        "__predict__": "False", 
        "bias_bits": "8", 
        "bits": "8", 
        "init_shift": "4", 
        "quantization_type": "data"
      }, 
      "inputs": [[790, 0, 0], [791, 0, 1]]
    }, 
    {
      "op": "null", 
      "name": "vargnetstage_5_unit_2_sep2_data_conv2d_pointwise_weight", 
      "attr": {"__predict__": "False"}, 
      "inputs": []
    }, 
    {
      "op": "null", 
      "name": "vargnetstage_5_unit_2_sep2_data_conv2d_pointwise_wshift_shift", 
      "attr": {
        "__logging__": "True", 
        "__predict__": "False", 
        "bias_bits": "8", 
        "bits": "8", 
        "init_shift": "7", 
        "quantization_type": "weight", 
        "use_aux_shift": "True", 
        "vector_quanti": "True"
      }, 
      "inputs": []
    }, 
    {
      "op": "QuantizationSte", 
      "name": "vargnetstage_5_unit_2_sep2_data_conv2d_pointwise_wshift", 
      "attr": {
        "__logging__": "True", 
        "__predict__": "False", 
        "bias_bits": "8", 
        "bits": "8", 
        "init_shift": "7", 
        "quantization_type": "weight", 
        "use_aux_shift": "True", 
        "vector_quanti": "True"
      }, 
      "inputs": [[793, 0, 0], [794, 0, 1]]
    }, 
    {
      "op": "null", 
      "name": "vargnetstage_5_unit_2_sep2_data_conv2d_pointwise_bias", 
      "attr": {"__predict__": "False"}, 
      "inputs": []
    }, 
    {
      "op": "null", 
      "name": "vargnetstage_5_unit_2_sep2_data_conv2d_pointwise_bshift_shift", 
      "attr": {
        "__logging__": "True", 
        "__predict__": "False", 
        "bias_bits": "8", 
        "bits": "8", 
        "init_shift": "7", 
        "quantization_type": "bias", 
        "use_aux_shift": "True", 
        "vector_quanti": "True"
      }, 
      "inputs": []
    }, 
    {
      "op": "QuantizationSte", 
      "name": "vargnetstage_5_unit_2_sep2_data_conv2d_pointwise_bshift", 
      "attr": {
        "__logging__": "True", 
        "__predict__": "False", 
        "bias_bits": "8", 
        "bits": "8", 
        "init_shift": "7", 
        "quantization_type": "bias", 
        "use_aux_shift": "True", 
        "vector_quanti": "True"
      }, 
      "inputs": [[796, 0, 0], [797, 0, 1]]
    }, 
    {
      "op": "Convolution", 
      "name": "vargnetstage_5_unit_2_sep2_data_conv2d_pointwise", 
      "attr": {
        "__predict__": "False", 
        "kernel": "(1, 1)", 
        "no_bias": "False", 
        "num_filter": "640", 
        "num_group": "1", 
        "pad": "(0, 0)", 
        "stride": "(1, 1)", 
        "workspace": "512"
      }, 
      "inputs": [[792, 0, 0], [795, 0, 0], [798, 0, 0]]
    }, 
    {
      "op": "elemwise_add", 
      "name": "_plus19", 
      "attr": {
        "__force_mirroring__": "True", 
        "__predict__": "False"
      }, 
      "inputs": [[799, 0, 0], [763, 0, 0]]
    }, 
    {
      "op": "null", 
      "name": "vargnetstage_5_unit_2_sep2_data_conv2d_pointwise_quantidata_shift", 
      "attr": {
        "__force_mirroring__": "True", 
        "__logging__": "True", 
        "__predict__": "False", 
        "bias_bits": "8", 
        "bits": "8", 
        "init_shift": "4", 
        "quantization_type": "data"
      }, 
      "inputs": []
    }, 
    {
      "op": "QuantizationSte", 
      "name": "vargnetstage_5_unit_2_sep2_data_conv2d_pointwise_quantidata", 
      "attr": {
        "__force_mirroring__": "True", 
        "__logging__": "True", 
        "__predict__": "False", 
        "bias_bits": "8", 
        "bits": "8", 
        "init_shift": "4", 
        "quantization_type": "data"
      }, 
      "inputs": [[800, 0, 0], [801, 0, 1]]
    }, 
    {
      "op": "null", 
      "name": "vargnetstage_5_unit_3_sep1_data_conv2d_depthwise_weight", 
      "attr": {"__predict__": "False"}, 
      "inputs": []
    }, 
    {
      "op": "null", 
      "name": "vargnetstage_5_unit_3_sep1_data_conv2d_depthwise_wshift_shift", 
      "attr": {
        "__logging__": "True", 
        "__predict__": "False", 
        "bias_bits": "8", 
        "bits": "8", 
        "init_shift": "7", 
        "quantization_type": "weight", 
        "use_aux_shift": "True", 
        "vector_quanti": "True"
      }, 
      "inputs": []
    }, 
    {
      "op": "QuantizationSte", 
      "name": "vargnetstage_5_unit_3_sep1_data_conv2d_depthwise_wshift", 
      "attr": {
        "__logging__": "True", 
        "__predict__": "False", 
        "bias_bits": "8", 
        "bits": "8", 
        "init_shift": "7", 
        "quantization_type": "weight", 
        "use_aux_shift": "True", 
        "vector_quanti": "True"
      }, 
      "inputs": [[803, 0, 0], [804, 0, 1]]
    }, 
    {
      "op": "null", 
      "name": "vargnetstage_5_unit_3_sep1_data_conv2d_depthwise_bias", 
      "attr": {"__predict__": "False"}, 
      "inputs": []
    }, 
    {
      "op": "null", 
      "name": "vargnetstage_5_unit_3_sep1_data_conv2d_depthwise_bshift_shift", 
      "attr": {
        "__logging__": "True", 
        "__predict__": "False", 
        "bias_bits": "8", 
        "bits": "8", 
        "init_shift": "7", 
        "quantization_type": "bias", 
        "use_aux_shift": "True", 
        "vector_quanti": "True"
      }, 
      "inputs": []
    }, 
    {
      "op": "QuantizationSte", 
      "name": "vargnetstage_5_unit_3_sep1_data_conv2d_depthwise_bshift", 
      "attr": {
        "__logging__": "True", 
        "__predict__": "False", 
        "bias_bits": "8", 
        "bits": "8", 
        "init_shift": "7", 
        "quantization_type": "bias", 
        "use_aux_shift": "True", 
        "vector_quanti": "True"
      }, 
      "inputs": [[806, 0, 0], [807, 0, 1]]
    }, 
    {
      "op": "Convolution", 
      "name": "vargnetstage_5_unit_3_sep1_data_conv2d_depthwise", 
      "attr": {
        "__predict__": "False", 
        "__wd_mult__": "1", 
        "dilate": "(1, 1)", 
        "kernel": "(3, 3)", 
        "no_bias": "False", 
        "num_filter": "1280", 
        "num_group": "80", 
        "pad": "(1, 1)", 
        "stride": "(1, 1)", 
        "workspace": "512"
      }, 
      "inputs": [[802, 0, 0], [805, 0, 0], [808, 0, 0]]
    }, 
    {
      "op": "QuantiActivation", 
      "name": "quantiactivation33", 
      "attr": {
        "__force_mirroring__": "True", 
        "__predict__": "False", 
        "act_type": "relu"
      }, 
      "inputs": [[809, 0, 0]]
    }, 
    {
      "op": "null", 
      "name": "vargnetstage_5_unit_3_sep1_data_conv2d_depthwise_quantidata_shift", 
      "attr": {
        "__force_mirroring__": "True", 
        "__logging__": "True", 
        "__predict__": "False", 
        "bias_bits": "8", 
        "bits": "8", 
        "init_shift": "4", 
        "quantization_type": "data"
      }, 
      "inputs": []
    }, 
    {
      "op": "QuantizationSte", 
      "name": "vargnetstage_5_unit_3_sep1_data_conv2d_depthwise_quantidata", 
      "attr": {
        "__force_mirroring__": "True", 
        "__logging__": "True", 
        "__predict__": "False", 
        "bias_bits": "8", 
        "bits": "8", 
        "init_shift": "4", 
        "quantization_type": "data"
      }, 
      "inputs": [[810, 0, 0], [811, 0, 1]]
    }, 
    {
      "op": "null", 
      "name": "vargnetstage_5_unit_3_sep1_data_conv2d_pointwise_weight", 
      "attr": {"__predict__": "False"}, 
      "inputs": []
    }, 
    {
      "op": "null", 
      "name": "vargnetstage_5_unit_3_sep1_data_conv2d_pointwise_wshift_shift", 
      "attr": {
        "__logging__": "True", 
        "__predict__": "False", 
        "bias_bits": "8", 
        "bits": "8", 
        "init_shift": "7", 
        "quantization_type": "weight", 
        "use_aux_shift": "True", 
        "vector_quanti": "True"
      }, 
      "inputs": []
    }, 
    {
      "op": "QuantizationSte", 
      "name": "vargnetstage_5_unit_3_sep1_data_conv2d_pointwise_wshift", 
      "attr": {
        "__logging__": "True", 
        "__predict__": "False", 
        "bias_bits": "8", 
        "bits": "8", 
        "init_shift": "7", 
        "quantization_type": "weight", 
        "use_aux_shift": "True", 
        "vector_quanti": "True"
      }, 
      "inputs": [[813, 0, 0], [814, 0, 1]]
    }, 
    {
      "op": "null", 
      "name": "vargnetstage_5_unit_3_sep1_data_conv2d_pointwise_bias", 
      "attr": {"__predict__": "False"}, 
      "inputs": []
    }, 
    {
      "op": "null", 
      "name": "vargnetstage_5_unit_3_sep1_data_conv2d_pointwise_bshift_shift", 
      "attr": {
        "__logging__": "True", 
        "__predict__": "False", 
        "bias_bits": "8", 
        "bits": "8", 
        "init_shift": "7", 
        "quantization_type": "bias", 
        "use_aux_shift": "True", 
        "vector_quanti": "True"
      }, 
      "inputs": []
    }, 
    {
      "op": "QuantizationSte", 
      "name": "vargnetstage_5_unit_3_sep1_data_conv2d_pointwise_bshift", 
      "attr": {
        "__logging__": "True", 
        "__predict__": "False", 
        "bias_bits": "8", 
        "bits": "8", 
        "init_shift": "7", 
        "quantization_type": "bias", 
        "use_aux_shift": "True", 
        "vector_quanti": "True"
      }, 
      "inputs": [[816, 0, 0], [817, 0, 1]]
    }, 
    {
      "op": "Convolution", 
      "name": "vargnetstage_5_unit_3_sep1_data_conv2d_pointwise", 
      "attr": {
        "__predict__": "False", 
        "kernel": "(1, 1)", 
        "no_bias": "False", 
        "num_filter": "640", 
        "num_group": "1", 
        "pad": "(0, 0)", 
        "stride": "(1, 1)", 
        "workspace": "512"
      }, 
      "inputs": [[812, 0, 0], [815, 0, 0], [818, 0, 0]]
    }, 
    {
      "op": "QuantiActivation", 
      "name": "quantiactivation34", 
      "attr": {
        "__force_mirroring__": "True", 
        "__predict__": "False", 
        "act_type": "relu"
      }, 
      "inputs": [[819, 0, 0]]
    }, 
    {
      "op": "null", 
      "name": "vargnetstage_5_unit_3_sep1_data_conv2d_pointwise_quantidata_shift", 
      "attr": {
        "__force_mirroring__": "True", 
        "__logging__": "True", 
        "__predict__": "False", 
        "bias_bits": "8", 
        "bits": "8", 
        "init_shift": "4", 
        "quantization_type": "data"
      }, 
      "inputs": []
    }, 
    {
      "op": "QuantizationSte", 
      "name": "vargnetstage_5_unit_3_sep1_data_conv2d_pointwise_quantidata", 
      "attr": {
        "__force_mirroring__": "True", 
        "__logging__": "True", 
        "__predict__": "False", 
        "bias_bits": "8", 
        "bits": "8", 
        "init_shift": "4", 
        "quantization_type": "data"
      }, 
      "inputs": [[820, 0, 0], [821, 0, 1]]
    }, 
    {
      "op": "null", 
      "name": "vargnetstage_5_unit_3_sep2_data_conv2d_depthwise_weight", 
      "attr": {"__predict__": "False"}, 
      "inputs": []
    }, 
    {
      "op": "null", 
      "name": "vargnetstage_5_unit_3_sep2_data_conv2d_depthwise_wshift_shift", 
      "attr": {
        "__logging__": "True", 
        "__predict__": "False", 
        "bias_bits": "8", 
        "bits": "8", 
        "init_shift": "7", 
        "quantization_type": "weight", 
        "use_aux_shift": "True", 
        "vector_quanti": "True"
      }, 
      "inputs": []
    }, 
    {
      "op": "QuantizationSte", 
      "name": "vargnetstage_5_unit_3_sep2_data_conv2d_depthwise_wshift", 
      "attr": {
        "__logging__": "True", 
        "__predict__": "False", 
        "bias_bits": "8", 
        "bits": "8", 
        "init_shift": "7", 
        "quantization_type": "weight", 
        "use_aux_shift": "True", 
        "vector_quanti": "True"
      }, 
      "inputs": [[823, 0, 0], [824, 0, 1]]
    }, 
    {
      "op": "null", 
      "name": "vargnetstage_5_unit_3_sep2_data_conv2d_depthwise_bias", 
      "attr": {"__predict__": "False"}, 
      "inputs": []
    }, 
    {
      "op": "null", 
      "name": "vargnetstage_5_unit_3_sep2_data_conv2d_depthwise_bshift_shift", 
      "attr": {
        "__logging__": "True", 
        "__predict__": "False", 
        "bias_bits": "8", 
        "bits": "8", 
        "init_shift": "7", 
        "quantization_type": "bias", 
        "use_aux_shift": "True", 
        "vector_quanti": "True"
      }, 
      "inputs": []
    }, 
    {
      "op": "QuantizationSte", 
      "name": "vargnetstage_5_unit_3_sep2_data_conv2d_depthwise_bshift", 
      "attr": {
        "__logging__": "True", 
        "__predict__": "False", 
        "bias_bits": "8", 
        "bits": "8", 
        "init_shift": "7", 
        "quantization_type": "bias", 
        "use_aux_shift": "True", 
        "vector_quanti": "True"
      }, 
      "inputs": [[826, 0, 0], [827, 0, 1]]
    }, 
    {
      "op": "Convolution", 
      "name": "vargnetstage_5_unit_3_sep2_data_conv2d_depthwise", 
      "attr": {
        "__predict__": "False", 
        "__wd_mult__": "1", 
        "dilate": "(1, 1)", 
        "kernel": "(3, 3)", 
        "no_bias": "False", 
        "num_filter": "1280", 
        "num_group": "80", 
        "pad": "(1, 1)", 
        "stride": "(1, 1)", 
        "workspace": "512"
      }, 
      "inputs": [[822, 0, 0], [825, 0, 0], [828, 0, 0]]
    }, 
    {
      "op": "null", 
      "name": "vargnetstage_5_unit_3_sep2_data_conv2d_depthwise_quantidata_shift", 
      "attr": {
        "__force_mirroring__": "True", 
        "__logging__": "True", 
        "__predict__": "False", 
        "bias_bits": "8", 
        "bits": "8", 
        "init_shift": "4", 
        "quantization_type": "data"
      }, 
      "inputs": []
    }, 
    {
      "op": "QuantizationSte", 
      "name": "vargnetstage_5_unit_3_sep2_data_conv2d_depthwise_quantidata", 
      "attr": {
        "__force_mirroring__": "True", 
        "__logging__": "True", 
        "__predict__": "False", 
        "bias_bits": "8", 
        "bits": "8", 
        "init_shift": "4", 
        "quantization_type": "data"
      }, 
      "inputs": [[829, 0, 0], [830, 0, 1]]
    }, 
    {
      "op": "null", 
      "name": "vargnetstage_5_unit_3_sep2_data_conv2d_pointwise_weight", 
      "attr": {"__predict__": "False"}, 
      "inputs": []
    }, 
    {
      "op": "null", 
      "name": "vargnetstage_5_unit_3_sep2_data_conv2d_pointwise_wshift_shift", 
      "attr": {
        "__logging__": "True", 
        "__predict__": "False", 
        "bias_bits": "8", 
        "bits": "8", 
        "init_shift": "7", 
        "quantization_type": "weight", 
        "use_aux_shift": "True", 
        "vector_quanti": "True"
      }, 
      "inputs": []
    }, 
    {
      "op": "QuantizationSte", 
      "name": "vargnetstage_5_unit_3_sep2_data_conv2d_pointwise_wshift", 
      "attr": {
        "__logging__": "True", 
        "__predict__": "False", 
        "bias_bits": "8", 
        "bits": "8", 
        "init_shift": "7", 
        "quantization_type": "weight", 
        "use_aux_shift": "True", 
        "vector_quanti": "True"
      }, 
      "inputs": [[832, 0, 0], [833, 0, 1]]
    }, 
    {
      "op": "null", 
      "name": "vargnetstage_5_unit_3_sep2_data_conv2d_pointwise_bias", 
      "attr": {"__predict__": "False"}, 
      "inputs": []
    }, 
    {
      "op": "null", 
      "name": "vargnetstage_5_unit_3_sep2_data_conv2d_pointwise_bshift_shift", 
      "attr": {
        "__logging__": "True", 
        "__predict__": "False", 
        "bias_bits": "8", 
        "bits": "8", 
        "init_shift": "7", 
        "quantization_type": "bias", 
        "use_aux_shift": "True", 
        "vector_quanti": "True"
      }, 
      "inputs": []
    }, 
    {
      "op": "QuantizationSte", 
      "name": "vargnetstage_5_unit_3_sep2_data_conv2d_pointwise_bshift", 
      "attr": {
        "__logging__": "True", 
        "__predict__": "False", 
        "bias_bits": "8", 
        "bits": "8", 
        "init_shift": "7", 
        "quantization_type": "bias", 
        "use_aux_shift": "True", 
        "vector_quanti": "True"
      }, 
      "inputs": [[835, 0, 0], [836, 0, 1]]
    }, 
    {
      "op": "Convolution", 
      "name": "vargnetstage_5_unit_3_sep2_data_conv2d_pointwise", 
      "attr": {
        "__predict__": "False", 
        "kernel": "(1, 1)", 
        "no_bias": "False", 
        "num_filter": "640", 
        "num_group": "1", 
        "pad": "(0, 0)", 
        "stride": "(1, 1)", 
        "workspace": "512"
      }, 
      "inputs": [[831, 0, 0], [834, 0, 0], [837, 0, 0]]
    }, 
    {
      "op": "elemwise_add", 
      "name": "_plus20", 
      "attr": {
        "__force_mirroring__": "True", 
        "__predict__": "False"
      }, 
      "inputs": [[838, 0, 0], [802, 0, 0]]
    }, 
    {
      "op": "null", 
      "name": "vargnetstage_5_unit_3_sep2_data_conv2d_pointwise_quantidata_shift", 
      "attr": {
        "__force_mirroring__": "True", 
        "__logging__": "True", 
        "__predict__": "False", 
        "bias_bits": "8", 
        "bits": "8", 
        "init_shift": "4", 
        "quantization_type": "data"
      }, 
      "inputs": []
    }, 
    {
      "op": "QuantizationSte", 
      "name": "vargnetstage_5_unit_3_sep2_data_conv2d_pointwise_quantidata", 
      "attr": {
        "__force_mirroring__": "True", 
        "__logging__": "True", 
        "__predict__": "False", 
        "bias_bits": "8", 
        "bits": "8", 
        "init_shift": "4", 
        "quantization_type": "data"
      }, 
      "inputs": [[839, 0, 0], [840, 0, 1]]
    }, 
    {
      "op": "null", 
      "name": "emb_feat_last_conv1x1_weight", 
      "attr": {"__predict__": "False"}, 
      "inputs": []
    }, 
    {
      "op": "null", 
      "name": "emb_feat_last_conv1x1_wshift_shift", 
      "attr": {
        "__logging__": "True", 
        "__predict__": "False", 
        "bias_bits": "8", 
        "bits": "8", 
        "init_shift": "7", 
        "quantization_type": "weight", 
        "use_aux_shift": "True", 
        "vector_quanti": "True"
      }, 
      "inputs": []
    }, 
    {
      "op": "QuantizationSte", 
      "name": "emb_feat_last_conv1x1_wshift", 
      "attr": {
        "__logging__": "True", 
        "__predict__": "False", 
        "bias_bits": "8", 
        "bits": "8", 
        "init_shift": "7", 
        "quantization_type": "weight", 
        "use_aux_shift": "True", 
        "vector_quanti": "True"
      }, 
      "inputs": [[842, 0, 0], [843, 0, 1]]
    }, 
    {
      "op": "null", 
      "name": "emb_feat_last_conv1x1_bias", 
      "attr": {"__predict__": "False"}, 
      "inputs": []
    }, 
    {
      "op": "null", 
      "name": "emb_feat_last_conv1x1_bshift_shift", 
      "attr": {
        "__logging__": "True", 
        "__predict__": "False", 
        "bias_bits": "8", 
        "bits": "8", 
        "init_shift": "7", 
        "quantization_type": "bias", 
        "use_aux_shift": "True", 
        "vector_quanti": "True"
      }, 
      "inputs": []
    }, 
    {
      "op": "QuantizationSte", 
      "name": "emb_feat_last_conv1x1_bshift", 
      "attr": {
        "__logging__": "True", 
        "__predict__": "False", 
        "bias_bits": "8", 
        "bits": "8", 
        "init_shift": "7", 
        "quantization_type": "bias", 
        "use_aux_shift": "True", 
        "vector_quanti": "True"
      }, 
      "inputs": [[845, 0, 0], [846, 0, 1]]
    }, 
    {
      "op": "Convolution", 
      "name": "emb_feat_last_conv1x1", 
      "attr": {
        "__predict__": "False", 
        "kernel": "(1, 1)", 
        "num_filter": "1024", 
        "pad": "(0, 0)", 
        "stride": "(1, 1)", 
        "workspace": "512"
      }, 
      "inputs": [[841, 0, 0], [844, 0, 0], [847, 0, 0]]
    }, 
    {
      "op": "QuantiActivation", 
      "name": "quantiactivation35", 
      "attr": {
        "__force_mirroring__": "True", 
        "__predict__": "False", 
        "act_type": "relu"
      }, 
      "inputs": [[848, 0, 0]]
    }, 
    {
      "op": "null", 
      "name": "emb_feat_last_conv1x1_quantidata_shift", 
      "attr": {
        "__force_mirroring__": "True", 
        "__logging__": "True", 
        "__predict__": "False", 
        "bias_bits": "8", 
        "bits": "8", 
        "init_shift": "4", 
        "quantization_type": "data"
      }, 
      "inputs": []
    }, 
    {
      "op": "QuantizationSte", 
      "name": "emb_feat_last_conv1x1_quantidata", 
      "attr": {
        "__force_mirroring__": "True", 
        "__logging__": "True", 
        "__predict__": "False", 
        "bias_bits": "8", 
        "bits": "8", 
        "init_shift": "4", 
        "quantization_type": "data"
      }, 
      "inputs": [[849, 0, 0], [850, 0, 1]]
    }, 
    {
      "op": "null", 
      "name": "emb_feat_global_group_conv_weight", 
      "attr": {"__predict__": "False"}, 
      "inputs": []
    }, 
    {
      "op": "null", 
      "name": "emb_feat_global_group_conv_wshift_shift", 
      "attr": {
        "__logging__": "True", 
        "__predict__": "False", 
        "bias_bits": "8", 
        "bits": "8", 
        "init_shift": "7", 
        "quantization_type": "weight", 
        "use_aux_shift": "True", 
        "vector_quanti": "True"
      }, 
      "inputs": []
    }, 
    {
      "op": "QuantizationSte", 
      "name": "emb_feat_global_group_conv_wshift", 
      "attr": {
        "__logging__": "True", 
        "__predict__": "False", 
        "bias_bits": "8", 
        "bits": "8", 
        "init_shift": "7", 
        "quantization_type": "weight", 
        "use_aux_shift": "True", 
        "vector_quanti": "True"
      }, 
      "inputs": [[852, 0, 0], [853, 0, 1]]
    }, 
    {
      "op": "null", 
      "name": "emb_feat_global_group_conv_bias", 
      "attr": {"__predict__": "False"}, 
      "inputs": []
    }, 
    {
      "op": "null", 
      "name": "emb_feat_global_group_conv_bshift_shift", 
      "attr": {
        "__logging__": "True", 
        "__predict__": "False", 
        "bias_bits": "8", 
        "bits": "8", 
        "init_shift": "7", 
        "quantization_type": "bias", 
        "use_aux_shift": "True", 
        "vector_quanti": "True"
      }, 
      "inputs": []
    }, 
    {
      "op": "QuantizationSte", 
      "name": "emb_feat_global_group_conv_bshift", 
      "attr": {
        "__logging__": "True", 
        "__predict__": "False", 
        "bias_bits": "8", 
        "bits": "8", 
        "init_shift": "7", 
        "quantization_type": "bias", 
        "use_aux_shift": "True", 
        "vector_quanti": "True"
      }, 
      "inputs": [[855, 0, 0], [856, 0, 1]]
    }, 
    {
      "op": "Convolution", 
      "name": "emb_feat_global_group_conv", 
      "attr": {
        "__predict__": "False", 
        "kernel": "(7, 7)", 
        "num_filter": "1024", 
        "num_group": "128", 
        "pad": "(0, 0)", 
        "stride": "(1, 1)", 
        "workspace": "512"
      }, 
      "inputs": [[851, 0, 0], [854, 0, 0], [857, 0, 0]]
    }, 
    {
      "op": "null", 
      "name": "emb_feat_global_group_conv_quantidata_shift", 
      "attr": {
        "__force_mirroring__": "True", 
        "__logging__": "True", 
        "__predict__": "False", 
        "bias_bits": "8", 
        "bits": "8", 
        "init_shift": "4", 
        "quantization_type": "data"
      }, 
      "inputs": []
    }, 
    {
      "op": "QuantizationSte", 
      "name": "emb_feat_global_group_conv_quantidata", 
      "attr": {
        "__force_mirroring__": "True", 
        "__logging__": "True", 
        "__predict__": "False", 
        "bias_bits": "8", 
        "bits": "8", 
        "init_shift": "4", 
        "quantization_type": "data"
      }, 
      "inputs": [[858, 0, 0], [859, 0, 1]]
    }, 
    {
      "op": "null", 
      "name": "emb_feat_last_fc_weight", 
      "attr": {"__predict__": "False"}, 
      "inputs": []
    }, 
    {
      "op": "null", 
      "name": "emb_feat_last_fc_wshift_shift", 
      "attr": {
        "__logging__": "True", 
        "__predict__": "False", 
        "bias_bits": "8", 
        "bits": "8", 
        "init_shift": "7", 
        "quantization_type": "weight", 
        "use_aux_shift": "True", 
        "vector_quanti": "True"
      }, 
      "inputs": []
    }, 
    {
      "op": "QuantizationSte", 
      "name": "emb_feat_last_fc_wshift", 
      "attr": {
        "__logging__": "True", 
        "__predict__": "False", 
        "bias_bits": "8", 
        "bits": "8", 
        "init_shift": "7", 
        "quantization_type": "weight", 
        "use_aux_shift": "True", 
        "vector_quanti": "True"
      }, 
      "inputs": [[861, 0, 0], [862, 0, 1]]
    }, 
    {
      "op": "null", 
      "name": "emb_feat_last_fc_bias", 
      "attr": {"__predict__": "False"}, 
      "inputs": []
    }, 
    {
      "op": "null", 
      "name": "emb_feat_last_fc_bshift_shift", 
      "attr": {
        "__logging__": "True", 
        "__predict__": "False", 
        "bias_bits": "8", 
        "bits": "8", 
        "init_shift": "7", 
        "quantization_type": "bias", 
        "use_aux_shift": "True", 
        "vector_quanti": "True"
      }, 
      "inputs": []
    }, 
    {
      "op": "QuantizationSte", 
      "name": "emb_feat_last_fc_bshift", 
      "attr": {
        "__logging__": "True", 
        "__predict__": "False", 
        "bias_bits": "8", 
        "bits": "8", 
        "init_shift": "7", 
        "quantization_type": "bias", 
        "use_aux_shift": "True", 
        "vector_quanti": "True"
      }, 
      "inputs": [[864, 0, 0], [865, 0, 1]]
    }, 
    {
      "op": "Convolution", 
      "name": "emb_feat_last_fc", 
      "attr": {
        "__predict__": "False", 
        "kernel": "(1, 1)", 
        "num_filter": "512", 
        "pad": "(0, 0)", 
        "stride": "(1, 1)", 
        "workspace": "512"
      }, 
      "inputs": [[860, 0, 0], [863, 0, 0], [866, 0, 0]]
    }, 
    {
      "op": "null", 
      "name": "emb_feat_last_fc_quantidata_shift", 
      "attr": {
        "__force_mirroring__": "True", 
        "__logging__": "True", 
        "__predict__": "False", 
        "bias_bits": "8", 
        "bits": "8", 
        "init_shift": "4", 
        "quantization_type": "data"
      }, 
      "inputs": []
    }, 
    {
      "op": "QuantizationSte", 
      "name": "emb_feat_last_fc_quantidata", 
      "attr": {
        "__force_mirroring__": "True", 
        "__logging__": "True", 
        "__predict__": "False", 
        "bias_bits": "8", 
        "bits": "8", 
        "init_shift": "4", 
        "quantization_type": "data"
      }, 
      "inputs": [[867, 0, 0], [868, 0, 1]]
    }, 
    {
      "op": "null", 
      "name": "emb_feat_emb_fc_weight", 
      "attr": {"__predict__": "False"}, 
      "inputs": []
    }, 
    {
      "op": "null", 
      "name": "emb_feat_emb_fc_wshift_shift", 
      "attr": {
        "__logging__": "True", 
        "__predict__": "False", 
        "bias_bits": "8", 
        "bits": "8", 
        "init_shift": "7", 
        "quantization_type": "weight", 
        "use_aux_shift": "True", 
        "vector_quanti": "True"
      }, 
      "inputs": []
    }, 
    {
      "op": "QuantizationSte", 
      "name": "emb_feat_emb_fc_wshift", 
      "attr": {
        "__logging__": "True", 
        "__predict__": "False", 
        "bias_bits": "8", 
        "bits": "8", 
        "init_shift": "7", 
        "quantization_type": "weight", 
        "use_aux_shift": "True", 
        "vector_quanti": "True"
      }, 
      "inputs": [[870, 0, 0], [871, 0, 1]]
    }, 
    {
      "op": "null", 
      "name": "emb_feat_emb_fc_bias", 
      "attr": {"__predict__": "False"}, 
      "inputs": []
    }, 
    {
      "op": "null", 
      "name": "emb_feat_emb_fc_bshift_shift", 
      "attr": {
        "__logging__": "True", 
        "__predict__": "False", 
        "bias_bits": "8", 
        "bits": "8", 
        "init_shift": "7", 
        "quantization_type": "bias", 
        "use_aux_shift": "True", 
        "vector_quanti": "True"
      }, 
      "inputs": []
    }, 
    {
      "op": "QuantizationSte", 
      "name": "emb_feat_emb_fc_bshift", 
      "attr": {
        "__logging__": "True", 
        "__predict__": "False", 
        "bias_bits": "8", 
        "bits": "8", 
        "init_shift": "7", 
        "quantization_type": "bias", 
        "use_aux_shift": "True", 
        "vector_quanti": "True"
      }, 
      "inputs": [[873, 0, 0], [874, 0, 1]]
    }, 
    {
      "op": "Convolution", 
      "name": "emb_feat_emb_fc", 
      "attr": {
        "__predict__": "False", 
        "kernel": "(1, 1)", 
        "num_filter": "128", 
        "pad": "(0, 0)", 
        "stride": "(1, 1)", 
        "workspace": "512"
      }, 
      "inputs": [[869, 0, 0], [872, 0, 0], [875, 0, 0]]
    }, 
    {
      "op": "Flatten", 
      "name": "flatten0", 
      "attr": {"__predict__": "False"}, 
      "inputs": [[876, 0, 0]]
    }, 
    {
      "op": "L2Normalization", 
      "name": "l2normalization0", 
      "inputs": [[877, 0, 0]]
    }
  ], 
  "arg_nodes": [
    0, 
    1, 
    3, 
    4, 
    6, 
    7, 
    11, 
    13, 
    14, 
    16, 
    17, 
    21, 
    23, 
    24, 
    26, 
    27, 
    31, 
    33, 
    34, 
    36, 
    37, 
    40, 
    42, 
    43, 
    45, 
    46, 
    49, 
    50, 
    52, 
    53, 
    56, 
    58, 
    59, 
    61, 
    62, 
    65, 
    68, 
    70, 
    71, 
    73, 
    74, 
    78, 
    80, 
    81, 
    83, 
    84, 
    87, 
    88, 
    90, 
    91, 
    94, 
    96, 
    97, 
    99, 
    100, 
    103, 
    107, 
    109, 
    110, 
    112, 
    113, 
    116, 
    118, 
    119, 
    121, 
    122, 
    125, 
    126, 
    128, 
    129, 
    132, 
    134, 
    135, 
    137, 
    138, 
    141, 
    144, 
    146, 
    147, 
    149, 
    150, 
    154, 
    156, 
    157, 
    159, 
    160, 
    164, 
    166, 
    167, 
    169, 
    170, 
    173, 
    175, 
    176, 
    178, 
    179, 
    183, 
    185, 
    186, 
    188, 
    189, 
    193, 
    195, 
    196, 
    198, 
    199, 
    203, 
    205, 
    206, 
    208, 
    209, 
    212, 
    214, 
    215, 
    217, 
    218, 
    222, 
    224, 
    225, 
    227, 
    228, 
    232, 
    234, 
    235, 
    237, 
    238, 
    241, 
    242, 
    244, 
    245, 
    248, 
    250, 
    251, 
    253, 
    254, 
    257, 
    261, 
    263, 
    264, 
    266, 
    267, 
    270, 
    272, 
    273, 
    275, 
    276, 
    279, 
    280, 
    282, 
    283, 
    286, 
    288, 
    289, 
    291, 
    292, 
    295, 
    298, 
    300, 
    301, 
    303, 
    304, 
    308, 
    310, 
    311, 
    313, 
    314, 
    318, 
    320, 
    321, 
    323, 
    324, 
    327, 
    329, 
    330, 
    332, 
    333, 
    337, 
    339, 
    340, 
    342, 
    343, 
    347, 
    349, 
    350, 
    352, 
    353, 
    357, 
    359, 
    360, 
    362, 
    363, 
    366, 
    368, 
    369, 
    371, 
    372, 
    376, 
    378, 
    379, 
    381, 
    382, 
    386, 
    388, 
    389, 
    391, 
    392, 
    396, 
    398, 
    399, 
    401, 
    402, 
    405, 
    407, 
    408, 
    410, 
    411, 
    415, 
    417, 
    418, 
    420, 
    421, 
    425, 
    427, 
    428, 
    430, 
    431, 
    434, 
    435, 
    437, 
    438, 
    441, 
    443, 
    444, 
    446, 
    447, 
    450, 
    454, 
    456, 
    457, 
    459, 
    460, 
    463, 
    465, 
    466, 
    468, 
    469, 
    472, 
    473, 
    475, 
    476, 
    479, 
    481, 
    482, 
    484, 
    485, 
    488, 
    491, 
    493, 
    494, 
    496, 
    497, 
    501, 
    503, 
    504, 
    506, 
    507, 
    511, 
    513, 
    514, 
    516, 
    517, 
    520, 
    522, 
    523, 
    525, 
    526, 
    530, 
    532, 
    533, 
    535, 
    536, 
    540, 
    542, 
    543, 
    545, 
    546, 
    550, 
    552, 
    553, 
    555, 
    556, 
    559, 
    561, 
    562, 
    564, 
    565, 
    569, 
    571, 
    572, 
    574, 
    575, 
    579, 
    581, 
    582, 
    584, 
    585, 
    589, 
    591, 
    592, 
    594, 
    595, 
    598, 
    600, 
    601, 
    603, 
    604, 
    608, 
    610, 
    611, 
    613, 
    614, 
    618, 
    620, 
    621, 
    623, 
    624, 
    628, 
    630, 
    631, 
    633, 
    634, 
    637, 
    639, 
    640, 
    642, 
    643, 
    647, 
    649, 
    650, 
    652, 
    653, 
    657, 
    659, 
    660, 
    662, 
    663, 
    667, 
    669, 
    670, 
    672, 
    673, 
    676, 
    678, 
    679, 
    681, 
    682, 
    686, 
    688, 
    689, 
    691, 
    692, 
    696, 
    698, 
    699, 
    701, 
    702, 
    705, 
    706, 
    708, 
    709, 
    712, 
    714, 
    715, 
    717, 
    718, 
    721, 
    725, 
    727, 
    728, 
    730, 
    731, 
    734, 
    736, 
    737, 
    739, 
    740, 
    743, 
    744, 
    746, 
    747, 
    750, 
    752, 
    753, 
    755, 
    756, 
    759, 
    762, 
    764, 
    765, 
    767, 
    768, 
    772, 
    774, 
    775, 
    777, 
    778, 
    782, 
    784, 
    785, 
    787, 
    788, 
    791, 
    793, 
    794, 
    796, 
    797, 
    801, 
    803, 
    804, 
    806, 
    807, 
    811, 
    813, 
    814, 
    816, 
    817, 
    821, 
    823, 
    824, 
    826, 
    827, 
    830, 
    832, 
    833, 
    835, 
    836, 
    840, 
    842, 
    843, 
    845, 
    846, 
    850, 
    852, 
    853, 
    855, 
    856, 
    859, 
    861, 
    862, 
    864, 
    865, 
    868, 
    870, 
    871, 
    873, 
    874
  ], 
  "node_row_ptr": [
    0, 
    1, 
    2, 
    3, 
    4, 
    5, 
    6, 
    7, 
    8, 
    9, 
    10, 
    11, 
    12, 
    13, 
    14, 
    15, 
    16, 
    17, 
    18, 
    19, 
    20, 
    21, 
    22, 
    23, 
    24, 
    25, 
    26, 
    27, 
    28, 
    29, 
    30, 
    31, 
    32, 
    33, 
    34, 
    35, 
    36, 
    37, 
    38, 
    39, 
    40, 
    41, 
    42, 
    43, 
    44, 
    45, 
    46, 
    47, 
    48, 
    49, 
    50, 
    51, 
    52, 
    53, 
    54, 
    55, 
    56, 
    57, 
    58, 
    59, 
    60, 
    61, 
    62, 
    63, 
    64, 
    65, 
    66, 
    67, 
    68, 
    69, 
    70, 
    71, 
    72, 
    73, 
    74, 
    75, 
    76, 
    77, 
    78, 
    79, 
    80, 
    81, 
    82, 
    83, 
    84, 
    85, 
    86, 
    87, 
    88, 
    89, 
    90, 
    91, 
    92, 
    93, 
    94, 
    95, 
    96, 
    97, 
    98, 
    99, 
    100, 
    101, 
    102, 
    103, 
    104, 
    105, 
    106, 
    107, 
    108, 
    109, 
    110, 
    111, 
    112, 
    113, 
    114, 
    115, 
    116, 
    117, 
    118, 
    119, 
    120, 
    121, 
    122, 
    123, 
    124, 
    125, 
    126, 
    127, 
    128, 
    129, 
    130, 
    131, 
    132, 
    133, 
    134, 
    135, 
    136, 
    137, 
    138, 
    139, 
    140, 
    141, 
    142, 
    143, 
    144, 
    145, 
    146, 
    147, 
    148, 
    149, 
    150, 
    151, 
    152, 
    153, 
    154, 
    155, 
    156, 
    157, 
    158, 
    159, 
    160, 
    161, 
    162, 
    163, 
    164, 
    165, 
    166, 
    167, 
    168, 
    169, 
    170, 
    171, 
    172, 
    173, 
    174, 
    175, 
    176, 
    177, 
    178, 
    179, 
    180, 
    181, 
    182, 
    183, 
    184, 
    185, 
    186, 
    187, 
    188, 
    189, 
    190, 
    191, 
    192, 
    193, 
    194, 
    195, 
    196, 
    197, 
    198, 
    199, 
    200, 
    201, 
    202, 
    203, 
    204, 
    205, 
    206, 
    207, 
    208, 
    209, 
    210, 
    211, 
    212, 
    213, 
    214, 
    215, 
    216, 
    217, 
    218, 
    219, 
    220, 
    221, 
    222, 
    223, 
    224, 
    225, 
    226, 
    227, 
    228, 
    229, 
    230, 
    231, 
    232, 
    233, 
    234, 
    235, 
    236, 
    237, 
    238, 
    239, 
    240, 
    241, 
    242, 
    243, 
    244, 
    245, 
    246, 
    247, 
    248, 
    249, 
    250, 
    251, 
    252, 
    253, 
    254, 
    255, 
    256, 
    257, 
    258, 
    259, 
    260, 
    261, 
    262, 
    263, 
    264, 
    265, 
    266, 
    267, 
    268, 
    269, 
    270, 
    271, 
    272, 
    273, 
    274, 
    275, 
    276, 
    277, 
    278, 
    279, 
    280, 
    281, 
    282, 
    283, 
    284, 
    285, 
    286, 
    287, 
    288, 
    289, 
    290, 
    291, 
    292, 
    293, 
    294, 
    295, 
    296, 
    297, 
    298, 
    299, 
    300, 
    301, 
    302, 
    303, 
    304, 
    305, 
    306, 
    307, 
    308, 
    309, 
    310, 
    311, 
    312, 
    313, 
    314, 
    315, 
    316, 
    317, 
    318, 
    319, 
    320, 
    321, 
    322, 
    323, 
    324, 
    325, 
    326, 
    327, 
    328, 
    329, 
    330, 
    331, 
    332, 
    333, 
    334, 
    335, 
    336, 
    337, 
    338, 
    339, 
    340, 
    341, 
    342, 
    343, 
    344, 
    345, 
    346, 
    347, 
    348, 
    349, 
    350, 
    351, 
    352, 
    353, 
    354, 
    355, 
    356, 
    357, 
    358, 
    359, 
    360, 
    361, 
    362, 
    363, 
    364, 
    365, 
    366, 
    367, 
    368, 
    369, 
    370, 
    371, 
    372, 
    373, 
    374, 
    375, 
    376, 
    377, 
    378, 
    379, 
    380, 
    381, 
    382, 
    383, 
    384, 
    385, 
    386, 
    387, 
    388, 
    389, 
    390, 
    391, 
    392, 
    393, 
    394, 
    395, 
    396, 
    397, 
    398, 
    399, 
    400, 
    401, 
    402, 
    403, 
    404, 
    405, 
    406, 
    407, 
    408, 
    409, 
    410, 
    411, 
    412, 
    413, 
    414, 
    415, 
    416, 
    417, 
    418, 
    419, 
    420, 
    421, 
    422, 
    423, 
    424, 
    425, 
    426, 
    427, 
    428, 
    429, 
    430, 
    431, 
    432, 
    433, 
    434, 
    435, 
    436, 
    437, 
    438, 
    439, 
    440, 
    441, 
    442, 
    443, 
    444, 
    445, 
    446, 
    447, 
    448, 
    449, 
    450, 
    451, 
    452, 
    453, 
    454, 
    455, 
    456, 
    457, 
    458, 
    459, 
    460, 
    461, 
    462, 
    463, 
    464, 
    465, 
    466, 
    467, 
    468, 
    469, 
    470, 
    471, 
    472, 
    473, 
    474, 
    475, 
    476, 
    477, 
    478, 
    479, 
    480, 
    481, 
    482, 
    483, 
    484, 
    485, 
    486, 
    487, 
    488, 
    489, 
    490, 
    491, 
    492, 
    493, 
    494, 
    495, 
    496, 
    497, 
    498, 
    499, 
    500, 
    501, 
    502, 
    503, 
    504, 
    505, 
    506, 
    507, 
    508, 
    509, 
    510, 
    511, 
    512, 
    513, 
    514, 
    515, 
    516, 
    517, 
    518, 
    519, 
    520, 
    521, 
    522, 
    523, 
    524, 
    525, 
    526, 
    527, 
    528, 
    529, 
    530, 
    531, 
    532, 
    533, 
    534, 
    535, 
    536, 
    537, 
    538, 
    539, 
    540, 
    541, 
    542, 
    543, 
    544, 
    545, 
    546, 
    547, 
    548, 
    549, 
    550, 
    551, 
    552, 
    553, 
    554, 
    555, 
    556, 
    557, 
    558, 
    559, 
    560, 
    561, 
    562, 
    563, 
    564, 
    565, 
    566, 
    567, 
    568, 
    569, 
    570, 
    571, 
    572, 
    573, 
    574, 
    575, 
    576, 
    577, 
    578, 
    579, 
    580, 
    581, 
    582, 
    583, 
    584, 
    585, 
    586, 
    587, 
    588, 
    589, 
    590, 
    591, 
    592, 
    593, 
    594, 
    595, 
    596, 
    597, 
    598, 
    599, 
    600, 
    601, 
    602, 
    603, 
    604, 
    605, 
    606, 
    607, 
    608, 
    609, 
    610, 
    611, 
    612, 
    613, 
    614, 
    615, 
    616, 
    617, 
    618, 
    619, 
    620, 
    621, 
    622, 
    623, 
    624, 
    625, 
    626, 
    627, 
    628, 
    629, 
    630, 
    631, 
    632, 
    633, 
    634, 
    635, 
    636, 
    637, 
    638, 
    639, 
    640, 
    641, 
    642, 
    643, 
    644, 
    645, 
    646, 
    647, 
    648, 
    649, 
    650, 
    651, 
    652, 
    653, 
    654, 
    655, 
    656, 
    657, 
    658, 
    659, 
    660, 
    661, 
    662, 
    663, 
    664, 
    665, 
    666, 
    667, 
    668, 
    669, 
    670, 
    671, 
    672, 
    673, 
    674, 
    675, 
    676, 
    677, 
    678, 
    679, 
    680, 
    681, 
    682, 
    683, 
    684, 
    685, 
    686, 
    687, 
    688, 
    689, 
    690, 
    691, 
    692, 
    693, 
    694, 
    695, 
    696, 
    697, 
    698, 
    699, 
    700, 
    701, 
    702, 
    703, 
    704, 
    705, 
    706, 
    707, 
    708, 
    709, 
    710, 
    711, 
    712, 
    713, 
    714, 
    715, 
    716, 
    717, 
    718, 
    719, 
    720, 
    721, 
    722, 
    723, 
    724, 
    725, 
    726, 
    727, 
    728, 
    729, 
    730, 
    731, 
    732, 
    733, 
    734, 
    735, 
    736, 
    737, 
    738, 
    739, 
    740, 
    741, 
    742, 
    743, 
    744, 
    745, 
    746, 
    747, 
    748, 
    749, 
    750, 
    751, 
    752, 
    753, 
    754, 
    755, 
    756, 
    757, 
    758, 
    759, 
    760, 
    761, 
    762, 
    763, 
    764, 
    765, 
    766, 
    767, 
    768, 
    769, 
    770, 
    771, 
    772, 
    773, 
    774, 
    775, 
    776, 
    777, 
    778, 
    779, 
    780, 
    781, 
    782, 
    783, 
    784, 
    785, 
    786, 
    787, 
    788, 
    789, 
    790, 
    791, 
    792, 
    793, 
    794, 
    795, 
    796, 
    797, 
    798, 
    799, 
    800, 
    801, 
    802, 
    803, 
    804, 
    805, 
    806, 
    807, 
    808, 
    809, 
    810, 
    811, 
    812, 
    813, 
    814, 
    815, 
    816, 
    817, 
    818, 
    819, 
    820, 
    821, 
    822, 
    823, 
    824, 
    825, 
    826, 
    827, 
    828, 
    829, 
    830, 
    831, 
    832, 
    833, 
    834, 
    835, 
    836, 
    837, 
    838, 
    839, 
    840, 
    841, 
    842, 
    843, 
    844, 
    845, 
    846, 
    847, 
    848, 
    849, 
    850, 
    851, 
    852, 
    853, 
    854, 
    855, 
    856, 
    857, 
    858, 
    859, 
    860, 
    861, 
    862, 
    863, 
    864, 
    865, 
    866, 
    867, 
    868, 
    869, 
    870, 
    871, 
    872, 
    873, 
    874, 
    875, 
    876, 
    877, 
    878, 
    880
  ], 
  "heads": [[878, 0, 0]], 
  "attrs": {
    "build_version": ["str", "nnvm_1.3.0.1.1 commit 2b4582954ebe96d26bf1a10747d1c753c14a4392 Author: shuqian.qu <shuqian.qu@hobot.cc> Date:   Thu Mar 7 11:40:36 2019 +0800"], 
    "mxnet_version": ["int", 10300]
  }
}